model/model-4x.ckpt (torch_old, 270615 bytes, 48 tensors)

feature_extraction.weight f4 [48, 3, 5, 5]
0.056002464 -0.21266659 0.14018543 -0.30085412 0.0300406 -0.15360148 -0.21102087 -0.23282789
-0.28717592 -0.1596205 0.27980748 -0.25157475 -0.27404746 -0.37217915 0.10055174 -0.22999777
-0.20419367 0.022055488 -0.4762968 -0.09532751 0.07863454 0.25261107 -0.108858325 0.2779586
0.26622084 0.07287332 0.24023916 -0.25644934 0.22201404 0.09598636 -0.17654799 -0.10574013
-0.34933245 0.24035189 -0.13768701 0.16406447 -0.020414582 0.218595 0.11068373 0.01607594
-0.17830543 0.2010379 -0.08656915 -0.3254496 -0.002280153 -0.021881355 -0.15623818 -0.0027980036
-0.05172214 -0.23013096 0.16822484 -0.12945722 -0.20074835 -0.15314259 -0.34427905 0.09550503
0.10912636 -0.42474473 0.27006748 0.0519557 -0.22452156 0.35701737 -0.1679954 0.3010037
-0.01642823 0.25583085 0.08624497 -0.37806323 -0.2342851 0.034824517 -0.18387733 -0.015603431
0.1396431 -0.43585026 -0.29178432 -0.1668363 0.15644227 0.1071598 0.06361045 0.06483365
-0.05443759 0.14117481 -0.2755107 0.24276246 -0.05294822 -0.059828818 -0.05701071 -0.046660144
0.12427893 -0.03851056 0.23436569 -0.04810978 -0.3800269 0.37104273 0.10771331 0.117931746
0.17440549 0.15215172 0.12208763 -0.15224253 -0.259582 0.22369392 0.11788381 0.103535205
-0.08440706 0.013113934 -0.06763082 0.14112537 0.29690596 0.0371261 0.002152172 0.18765505
0.015901906 0.31127617 -0.343552 0.11419781 0.2770617 0.23122428 0.071021065 -0.06333685
-0.010809131 -0.14955828 -0.06997585 -0.078785874 0.20441045 0.18702 -0.042311635 -0.06310222
-0.05031072 -0.040284567 0.2693217 -0.10555138 -0.395012 0.009526073 -0.023222264 0.074986495
0.10440803 -0.24608187 0.2854346 0.33121064 -0.23776537 -0.024337841 0.15903373 -0.33075598
0.024748314 0.057030827 -0.15924565 0.048534654 0.07340051 0.0654391 -0.13240284 -0.078872025
-0.35422784 -0.03009668 0.09935956 0.064292185 0.40977907 0.52330524 0.28961927 -0.20037666
-0.028275482 -0.043615006 -0.47857964 0.110602476 0.050261147 -0.13258286 0.08004507 0.122164145
0.09133779 0.18321685 0.025123572 0.05989861 -0.112866804 -0.08274477 0.012195757 -0.02245408
0.12955779 -0.13363299 0.0038273889 -0.0747058 -0.19701646 -0.1620656 0.24031068 0.0073405122
-0.0820357 0.07157508 0.17483577 -0.193708 0.216048 0.14543907 0.29887706 0.0026634105
0.4427693 -0.063322745 0.065174 -0.06358202 -0.1473903 0.06401163 0.16490011 0.28582662
-0.091219336 0.19518453 0.25941044 -0.024708208 0.20669504 -0.0012650976 -0.22450073 0.015456762
-0.49058187 0.39102247 0.32393706 -0.7323499 0.43312427 0.010219688 0.0005914789 0.17577776
0.096803926 -0.05328046 -0.032249298 -0.044102646 -0.10513406 0.122376986 0.04426429 0.2535268
0.106110096 -0.07761576 -0.020704135 0.0076519377 -0.050217327 0.12092977 -0.22805059 0.1924903
-0.34360385 -0.29405448 -0.100210726 0.1745627 0.07575105 -0.51236475 -0.23697318 0.25336206
-0.2616189 -0.015134828 -0.27662683 -0.40431356 -0.09759383 0.07604887 -0.15635167 -0.19511104
0.3207101 0.08211919 -0.025914472 0.161512 -0.4164019 0.107442446 -0.059181374 0.03862009
00000000: d762 653d 45c5 59be c58c 0f3e 8d09 9abe
00000010: b417 f63c b549 1dbe db15 58be 6f6a 6ebe
00000020: b908 93be 8e73 23be ed42 8f3e 68ce 80be
00000030: f34f 8cbe 448e bebe 12ee cd3d 8984 6bbe
00000040: 2518 51be b6ad b43c 2ddd f3be 123b c3bd
00000050: 250b a13d 3d56 813e 1df1 debd 9750 8e3e
00000060: 194e 883e 9b3e 953d 4101 763e 544d 83be
00000070: a657 633e 7f94 c43d ffc8 34be 488e d8bd
00000080: b4db b2be ce1e 763e d3fd 0cbe 8400 283e
00000090: 7b3c a7bc 5ed7 5f3e 27ae e23d b1b1 833c
000000a0: b395 36be e1dc 4d3e 2b4b b1bd 54a1 a6be
000000b0: 9f6e 15bb 8740 b3bc e7fc 1fbe b65e 37bb
000000c0: 98da 53bd 73a7 6bbe 2243 2c3e 6f90 04be
000000d0: fa90 4dbe 69d1 1cbe 5845 b0be 2498 c33d
000000e0: a47d df3d 2478 d9be 4946 8a3e 80cf 543d
000000f0: fbe8 65be fbca b63e fc06 2cbe 281d 9a3e
00000100: 7f94 86bc 43fc 823e 34a1 b03d 8191 c1be
00000110: 6fe8 6fbe 27a4 0e3d 574a 3cbe 88a5 7fbc
00000120: 9afe 0e3e c427 dfbe c164 95be 23d7 2abe
00000130: 6732 203e 9976 db3d 3246 823d 81c7 843d
00000140: f3f9 5ebd 2190 103e bd0f 8dbe b996 783e
00000150: 3ce0 58bd 100f 75bd 1084 69bd b51e 3fbd
00000160: f485 fe3d 40bd 1dbd 8ffd 6f3e c30e 45bd
00000170: e392 c2be 50f9 bd3e cc98 dc3d 3386 f13d
00000180: 5a97 323e a9cd 1b3e 1409 fa3d 77e5 1bbe
00000190: efe7 84be 0510 653e 116d f13d 440a d43d
000001a0: 9cdd acbd d3db 563c 0782 8abd 2b83 103e
000001b0: 0f04 983e 8a11 183d 740b 0d3b a528 403e
000001c0: b744 823c 975f 9f3e 0ce6 afbe 8be0 e93d
000001d0: 08db 8d3e 0fc6 6c3e 7e73 913d c0b6 81bd
000001e0: c818 31bc ce25 19be 804f 8fbd 7d5a a1bd
000001f0: f950 513e 2c82 3f3e f74e 2dbd bd3b 81bd
00000200: 9d12 4ebd 6e01 25bd 89e4 893e 522b d8bd
00000210: 033f cabe 3f13 1c3c 9e3c bebc 8592 993d
00000220: e1d3 d53d e3fc 7bbe 7c24 923e 7194 a93e
00000230: c478 73be 2760 c7bc bdd9 223e d958 a9be
00000240: fabc ca3c 2899 693d 4b11 23be 46cc 463d
00000250: 0253 963d ef04 863d 9c94 07be a887 a1bd
00000260: 5a5d b5be 508d f6bc 067d cb3d 9fab 833d
00000270: 90ce d13e 55f7 053f fa48 943e 8a2f 4dbe
00000280: fca1 e7bc a6a5 32bd 6408 f5be 8d83 e23d
00000290: a2de 4d3d cdc3 07be abee a33d 3231 fa3d
000002a0: 4f0f bb3d 339d 3b3e f3cf cd3c 3f58 753d
000002b0: b626 e7bd 1776 a9bd b6d0 473c 9ef1 b7bc
000002c0: ccaa 043e 16d7 08be eed4 7a3b 5bff 98bd
000002d0: afbe 49be 86f4 25be 0114 763e ae88 f03b
000002e0: 5502 a8bd f595 923d 2608 333e 645b 46be
000002f0: b03b 5d3e fbed 143e 6a06 993e 9d8c 2e3b
00000300: a8b2 e23e 5baf 81bd f279 853d 4a37 82bd
00000310: 7ced 16be 8818 833d 93db 283e de57 923e
00000320: 34d1 babd 74de 473e 72d1 843e de68 cabc
00000330: dda7 533e a2d1 a5ba 85e3 65be 5c3e 7d3c
00000340: 8c2d fbbe 1934 c83e 14db a53e 487b 3bbf
00000350: 77c2 dd3e 7a70 273c 7a0d 1b3a 16ff 333e
00000360: 2341 c63d 9d3c 5abd d717 04bd faa4 34bd
00000370: 8750 d7bd c9a0 fa3d 794e 353d 44ce 813e
00000380: 4050 d93d 03f5 9ebd b89b a9bc 1bbd fa3b
00000390: afb0 4dbd 07aa f73d 1886 69be 2d1c 453e
000003a0: d8ec afbe 4f8e 96be 483b cdbd 90c0 323e
000003b0: 5e23 9b3d 562a 03bf 19a9 72be acb8 813e
000003c0: eaf2 85be 12f8 77bc 08a2 8dbe 3002 cfbe
000003d0: 46df c7bd 83bf 9b3d a71a 20be 30cb 47be
000003e0: 1d34 a43e 1b2e a83d 964a d4bc 6763 253e
000003f0: a132 d5be c90a dc3d 2b68 72bd 1930 1e3d

feature_extraction.bias f4 [48]
-0.09302015 0.08994612 0.15547922 -0.21747343 0.007847652 0.2969414 0.19804843 0.06911541
0.21298045 0.12023162 0.007547363 0.40538177 0.041965816 -0.016868744 0.11227874 0.3499221
-0.11876992 0.05122054 -0.0018368936 0.010387266 0.17838961 0.10962171 0.1154392 0.036295634
0.19779256 0.6026921 -0.14306158 0.0023462542 0.22854327 -0.32626304 0.21599226 -0.855826
-0.021911422 -0.39677423 0.072468184 0.099151485 0.11892405 0.18363073 0.19186193 0.21399508
-0.08648704 -0.00033321045 -0.021424709 0.22802323 0.13428164 -0.015162355 -0.0020955037 -0.46007773
00000000: 5981 bebd ac35 b83d f235 1f3e 5bb1 5ebe
00000010: 7093 003c b408 983e 35cd 4a3e 618c 8d3d
00000020: 8c17 5a3e ff3b f63d df4f f73b 338e cf3e
00000030: 59e4 2b3d 5230 8abc 65f2 e53d fd28 b33e
00000040: a53d f3bd a1cc 513d ecc3 f0ba 5a2f 2a3c
00000050: c4ab 363e 5981 e03d 636b ec3d bbaa 143d
00000060: 228a 4a3e 084a 1a3f bc7e 12be 9dc3 193b
00000070: 3f07 6a3e f30b a7be 132d 5d3e 6a17 5bbf
00000080: 957f b3bc fe25 cbbe 336a 943d ef0f cb3d
00000090: 748e f33d b209 3c3e 7477 443e 8721 5b3e
000000a0: 1e20 b1bd c0b2 aeb9 df82 afbc ec7e 693e
000000b0: 2081 093e 876b 78bc b854 09bb 4f8f ebbe

shrink.weight f4 [12, 48, 1, 1]
-0.4222153 -0.06216406 0.040790834 -0.16620037 -0.01642422 -0.24691892 -0.002951913 -0.017515518
0.32235923 0.43291613 -0.15653509 -0.008002022 -0.10382345 -0.071703695 0.20527695 -0.035351608
-0.09119956 0.23745017 -0.07180509 -0.25542367 -0.059915446 0.116870165 0.105952844 0.09548212
0.19274655 -0.029504482 -0.13361788 0.4258271 -0.36266387 -0.20610183 -0.27811176 0.18623714
0.03052954 0.053460073 0.18688497 -0.09962555 0.02180784 0.26272523 0.21870525 0.15268755
-0.0054748403 0.26023838 0.05572394 -0.029197693 -0.114312075 -0.0072664013 -0.06923593 -0.24723272
-0.040796984 -0.1146558 -0.012050497 -0.28786394 0.17544469 0.13006622 -0.062278163 0.03064362
-0.026238037 -0.11691192 -0.08581806 -0.11681305 -0.014883498 -0.14569926 0.16576639 0.15580532
0.062099054 -0.18727696 -0.07655632 -0.2241157 0.19368532 0.1462527 0.24567632 0.063369095
-0.16728719 -0.21179828 0.16767558 -0.037565123 -0.35984817 0.21643586 0.12880507 0.08663104
-0.09916805 -0.07056023 0.0419145 0.100531265 0.06560182 0.32357386 -0.054703757 -0.055913188
-0.034418862 -0.16925904 -0.07025861 0.25256878 0.23091574 0.022421882 -0.14710136 0.1023737
-0.38591263 0.0039386926 0.2971413 -0.09092789 -0.0073122517 0.3594536 -0.08448229 0.045390904
-0.39684603 -0.23930998 -0.20682463 0.1494961 -0.08806006 0.14816664 0.2140857 -0.13090296
-0.036081906 0.07654738 -0.16707972 0.5420686 -0.1687699 0.05569637 -0.28002748 0.2752635
0.05162193 0.07829372 0.21150054 -0.09551101 0.121569045 -0.109428935 0.09946082 0.03900198
-0.2329683 -0.5011377 -0.12669027 0.0054393574 -0.11942568 0.21448557 0.22797541 -0.24629141
0.071100034 0.08401676 -0.032847412 -0.24572471 0.1847783 -0.07058023 -0.049414095 -0.1269795
0.018362062 -0.13296138 0.4402712 0.42898837 -0.09228539 -0.24041905 -0.043618616 -0.06899064
-0.33687735 -0.0596768 -0.15535091 -0.15479662 0.028702416 -0.21350361 -0.24881132 -0.22232997
0.24259196 -0.23626152 0.21059263 -0.121694505 0.24947135 -0.40673316 0.18718664 0.08646924
0.045426935 0.13908008 -0.06623534 0.4532941 -0.23666084 -0.14435324 0.08533767 0.042486496
0.08430146 0.11895224 0.011629868 0.051201634 -0.020853302 0.2021363 -0.02131833 -0.14289746
-0.029391982 0.27619 0.0549223 0.20245685 0.22040504 0.09965457 -0.1149538 -0.08196227
0.07188119 -0.42008388 0.16745913 -0.28995383 0.11307496 -0.15967344 0.30219433 0.02608347
0.014557905 0.17163736 0.0035631633 0.21095803 -0.20692079 -0.15563364 -0.10802135 -0.06468718
0.21569067 0.17273816 0.0894255 -0.044448245 -0.17908272 -0.13375153 -0.015587824 0.05527553
-0.13088785 -0.1788797 0.08637514 0.15182261 -0.033909727 -0.06529053 0.18736236 0.12669726
0.09048117 -0.016622415 -0.25682458 -0.051170573 -0.2997665 0.25112656 -0.09987182 0.14222299
0.089940585 -0.19108307 -0.16695547 0.16293873 -0.01217932 0.16971533 -0.182373 0.2852236
0.044518966 0.12957744 -0.054994084 -0.14326575 -0.011415574 0.041480582 -0.012889146 -0.018950865
0.1324083 0.2512327 0.065632194 -0.04162429 -0.15284595 -0.17168605 -0.16927604 -0.0119106695
00000000: 9b2c d8be be9f 7ebd 4a14 273d 6e30 2abe
00000010: 168c 86bc 50d8 7cbe e274 41bb b47c 8fbc
00000020: 450c a53e 2fa7 dd3e bc4a 20be ea1a 03bc
00000030: 64a1 d4bd 63d9 92bd 1f34 523e d9cc 10bd
00000040: d6c6 babd 2326 733e 8c0e 93bd e4c6 82be
00000050: e669 75bd a059 ef3d cefd d83d 218c c33d
00000060: 5a5f 453e 62b3 f1bc 20d3 08be 0206 da3e
00000070: 14af b9be 5c0c 53be aa64 8ebe f3b4 3e3e
00000080: 1619 fa3c f3f8 5a3d c65e 3f3e 7b08 ccbd
00000090: 5ba6 b23c ec83 863e 45f4 5f3e 205a 1c3e
000000a0: 4a66 b3bb f73d 853e c93e 643d 0030 efbc
000000b0: 731c eabd fe1a eebb 91cb 8dbd 932a 7dbe
000000c0: bd1a 27bd a9d0 eabd 736f 45bc e762 93be
000000d0: c6a7 333e 1430 053e 6317 7fbd 5408 fb3c
000000e0: 27f1 d6bc 846f efbd 61c1 afbd ae3b efbd
000000f0: ead9 73bc 3032 15be aabe 293e 6e8b 1f3e
00000100: 945b 7e3d 88c5 3fbe 8fc9 9cbd 967e 65be
00000110: 7255 463e 45c3 153e 9392 7b3e a8c7 813d
00000120: 554d 2bbe a6e1 58be 26b3 2b3e e3dd 19bd
00000130: 053e b8be 5da1 5d3e 7ae5 033e 9d6b b13d
00000140: 9e18 cbbd e281 90bd 8aae 2b3d 56e3 cd3d
00000150: 3f5a 863d 79ab a53e 0c11 60bd 3a05 65bd
00000160: cbfa 0cbd 3e52 2dbe bfe3 8fbd b250 813e
00000170: 2d75 6c3e 18ae b73c bda1 16be 4da9 d13d
00000180: 5796 c5be 2610 813b e822 983e 6738 babd
00000190: 9d9b efbb 4d0a b83e 0d05 adbd d0eb 393d
000001a0: 672f cbbe ad0d 75be d6c9 53be 8115 193e
000001b0: d558 b4bd ffb8 173e 4839 5b3e 6d0b 06be
000001c0: 9fca 13bd dfc4 9c3d f216 2bbe 02c5 0a3f
000001d0: 04d2 2cbe e021 643d c35f 8fbe 56ef 8c3e
000001e0: 8471 533d 7558 a03d 9993 583e 479b c3bd
000001f0: 31f9 f83d 471c e0bd 1db2 cb3d 8ac0 1f3d
00000200: 3e8f 6ebe 8f4a 00bf 18bb 01be a33c b23b
00000210: 7395 f4bd 1ba2 5b3e 6372 693e d133 7cbe
00000220: e59c 913d fb10 ac3d 028b 06bd 429f 7bbe
00000230: 8636 3d3e 5e8c 90bd 6f66 4abd ea06 02be
00000240: 096c 963c 0727 08be 3a6b e13e 5da4 db3e
00000250: 1f00 bdbd 6930 76be 6fa9 32bd f74a 8dbd
00000260: 307b acbe a96f 74bd 4f14 1fbe 0183 1ebe
00000270: 5421 eb3c b1a0 5abe 65c8 7ebe 78aa 63be
00000280: 076a 783e 8aee 71be 98a5 573e f83a f9bd
00000290: 6b75 7f3e 543f d0be dbad 3f3e c916 b13d
000002a0: 9811 3a3d 026b 0e3e 65a6 87bd 2a16 e83e
000002b0: 3857 72be 56d1 13be 84c5 ae3d 5206 2e3d
000002c0: 3ea6 ac3d 3b9d f33d 348b 3e3c ceb8 513d
000002d0: 8bd4 aabc d1fc 4e3e c7a3 aebc b653 12be
000002e0: 74c7 f0bc c768 8d3e 35f6 603d d950 4f3e
000002f0: dcb1 613e b217 cc3d e66c ebbd d6db a7bd
00000300: 7236 933d 3c15 d7be 687a 2b3e d474 94be
00000310: d893 e73d 6f81 23be 37b9 9a3e 00ad d53c
00000320: 4784 6e3c b4c1 2f3e f683 693b 6205 583e
00000330: 0be3 53be 6d5e 1fbe 4c3a ddbd b67a 84bd
00000340: 04de 5c3e 46e2 303e b724 b73d 5d0f 36bd
00000350: 7661 37be 29f6 08be 1364 7fbc 9868 623d
00000360: 7707 06be 3d2c 37be 73e5 b03d 6377 1b3e
00000370: ede4 0abd 0bb7 85bd ebdb 3f3e edbc 013e
00000380: 314e b93d bb2b 88bc 837e 83be 3c98 51bd
00000390: ff7a 99be a993 803e 9989 ccbd e7a2 113e
000003a0: c532 b83d 48ab 43be 60f6 2abe 69d9 263e
000003b0: c58b 47bc dbc9 2d3e fdbf 3abe d408 923e
000003c0: 8559 363d f3af 043e 7a41 61bd 42b4 12be
000003d0: 6308 3bbc 8be7 293d ff2c 53bc d83e 9bbc
000003e0: 0b96 073e 93a1 803e 2c6a 863d 3b7e 2abd
000003f0: a683 1cbe 78ce 2fbe b356 2dbe f824 43bc

shrink.bias f4 [12]
-0.16239934 0.08059591 -0.07347942 0.09496528 0.12569217 0.04846856 -0.017056592 -0.15891738
0.078356825 0.068716034 0.06236729 0.023392733
00000000: 034c 26be 780f a53d 617c 96bd 287d c23d
00000010: 73b5 003e f886 463d 44ba 8bbc 3dbb 22be
00000020: 8b79 a03d feba 8c3d d874 7f3d 1ea2 bf3c

lm1.weight f4 [12, 12, 3, 3]
-0.08231312 0.19378321 -0.015680032 0.21371597 -0.69739807 0.32795352 -0.026697647 0.05294692
0.018764967 0.06888827 -0.1783342 0.039348245 0.22590144 0.056841232 0.0349553 -0.026090289
0.13057585 0.13025297 0.0192617 -0.066871 0.07789126 -0.22222431 -0.18775259 -0.12899792
-0.04083547 -0.10607576 -0.14986667 0.16103841 -0.019960737 -0.035880793 0.015082081 0.82049304
0.030926513 0.051574804 -0.24487387 -0.00037472098 0.07153424 -0.22171204 -0.00093872333 -0.18690278
0.11088533 -0.07546399 -0.053041097 -0.20858425 -0.08185772 0.028513705 0.021129215 0.05413085
0.3165153 -0.17050616 -0.08697015 0.1227686 -0.059841692 0.23090567 0.03845431 -0.20875482
0.03568199 0.12835617 -0.42127487 0.2608298 0.20649366 0.25152606 0.07368644 0.15416719
-0.36320263 -0.009957566 -0.15922534 0.17187877 -0.3070122 -0.20217673 0.11324939 -0.092459306
0.035425797 0.081654735 0.1474167 -0.08952016 0.24094847 0.046799343 0.0965341 0.07711918
0.05293136 -0.106298305 0.12836793 -0.019464672 -0.18225874 0.15247503 0.013472576 -0.035833746
-0.1849278 0.051594563 -0.18496606 -0.009807261 0.0012279261 -0.106246695 0.17161271 -0.16790657
-0.051305525 -0.15269625 0.027200935 -0.09595644 0.12514286 -0.17413422 0.019280668 0.16301017
0.12755159 0.13294409 -0.055394642 -0.04785907 0.004476036 -0.19098033 -0.11597531 0.1681587
0.61756814 -0.17829408 -0.074607916 0.0026225948 0.07566223 0.056497566 0.12343055 -0.016175788
-0.0048989262 -0.0013134199 -0.17312127 0.016524816 0.11339939 0.045383986 -0.06975249 0.07149653
-0.10612272 0.04393679 -0.14463124 -0.05822078 0.19247892 0.08037066 0.10169852 0.14630574
0.0032476997 -0.07016761 -0.10539567 0.10755786 0.0804758 0.03486869 0.26670364 0.032892726
0.14445901 -0.20889887 0.062938705 -0.108397156 0.019929918 -0.16271453 0.04886779 -0.18544285
0.11882902 0.13818674 0.21549232 0.17957231 0.05932036 -0.17040344 0.055601742 -0.018406881
-0.18418388 0.057365518 0.07271042 0.09973808 -0.10201894 -0.044692185 0.036441468 0.29348987
0.076667756 0.25330627 -0.109566756 0.15445466 -0.28051284 -0.08354021 0.10384154 0.015534773
0.1146676 0.28280872 0.38599116 -0.012767897 -0.11812587 -0.05115725 0.030401144 0.1140391
0.2710455 0.02691408 -0.08487087 -0.07219579 -0.11869797 0.0121365795 -0.026923524 -0.08442031
-0.18438536 0.47804046 0.08903718 0.089983396 -0.41344032 0.020237558 -0.10699576 0.24376841
0.061368305 -0.14351204 0.61408013 -0.19944765 -0.060390662 0.032038312 0.008341286 -0.009712586
0.05903777 -0.019280663 0.07720063 -0.34329462 -0.25511062 -0.09408121 0.10388727 0.050594773
0.15425812 -0.27274364 0.04259467 -0.07312192 0.12848285 0.098508775 0.014729414 -0.016502155
-0.07694548 0.10309619 0.045101475 0.09696502 -0.04769454 0.052039098 0.1931404 0.18057725
-0.15933189 0.07144748 -0.20066266 0.027349476 -0.009272646 0.008224679 0.14003448 0.012704079
0.009441245 0.20426679 0.045949332 0.053501006 -0.20551008 -0.15732303 -0.23724481 0.43073386
-0.37364945 -0.060369726 0.21945287 0.029415624 -0.04086115 0.14262654 -0.106372796 0.28567028
00000000: c893 a8bd 1b6f 463e 6973 80bc 5cd8 5a3e
00000010: ae88 32bf 86e9 a73e 06b5 dabc dfde 583d
00000020: fdb8 993c 4b15 8d3d 3e9d 36be a02b 213d
00000030: b552 673e 5ad2 683d 4a2d 0f3d 4dbb d5bc
00000040: adb5 053e 0961 053e b6ca 9d3c aaf3 88bd
00000050: 7485 9f3d c58e 63be 3742 40be 0818 04be
00000060: 1843 27bd 403e d9bd a676 19be 41e7 243e
00000070: b384 a3bc bdf7 12bd d51a 773c d50b 523f
00000080: 9959 fd3c 1a40 533d 37c0 7abe 3376 c4b9
00000090: 8b80 923d 7b08 63be a814 76ba 7163 3fbe
000000a0: d917 e33d dd8c 9abd 9f41 59bd 1c97 55be
000000b0: 05a5 a7bd 9395 e93c 2d17 ad3c 4fb8 5d3d
000000c0: 4b0e a23e 2b99 2ebe 681d b2bd 1b6e fb3d
000000d0: 901c 75bd 8972 6c3e 4482 1d3d d3c3 55be
000000e0: 4727 123d cd6f 033e 57b1 d7be 7c8b 853e
000000f0: 1373 533e 06c8 803e ebe8 963d 01de 1d3e
00000100: b2f5 b9be 0f25 23bc f80b 23be fd00 303e
00000110: b430 9dbe 6b07 4fbe 4cef e73d 4e5b bdbd
00000120: a41a 113d 993a a73d 67f4 163e 5856 b7bd
00000130: 32bb 763e abb0 3f3d acb3 c53d a9f0 9d3d
00000140: 8ece 583d edb2 d9bd e272 033e 6074 9fbc
00000150: 09a2 3abe 6a22 1c3e 14bc 5c3c 68c6 12bd
00000160: b75d 3dbe d254 533d be67 3dbe a2ae 20bc
00000170: 5df2 a03a de97 d9bd 3ebb 2f3e b3ef 2bbe
00000180: be25 52bd 685c 1cbe 7fd4 de3c cf84 c4bd
00000190: 7325 003e 3e50 32be 7ef2 9d3c 23ec 263e
000001a0: e29c 023e 7f22 083e 7ee5 62bd df07 44bd
000001b0: b6ab 923b 5990 43be 7784 edbd cb31 2c3e
000001c0: f218 1e3f b992 36be 09cc 98bd d7df 2b3b
000001d0: cdf4 9a3d fe69 673d 28c9 fc3d 1683 84bc
000001e0: 2c87 a0bb 0f27 acba b446 31be 0d5f 873c
000001f0: f03d e83d 8fe4 393d 65da 8ebd c66c 923d
00000200: de56 d9bd 10f7 333d 361a 14be ea78 6ebd
00000210: 3219 453e 5f99 a43d 5047 d03d 2cd1 153e
00000220: 5cd7 543b 09b4 8fbd afd9 d7bd 4c47 dc3d
00000230: 7fd0 a43d 79d2 0e3d 618d 883e 86ba 063d
00000240: 10ed 133e 96e9 55be 02e6 803d 54ff ddbd
00000250: 1144 a33c a39e 26be 9729 483d bbe4 3dbe
00000260: a15c f33d d380 0d3e 05aa 5c3e cee1 373e
00000270: e8f9 723d 3d7e 2ebe a7be 633d 07ca 96bc
00000280: b39a 3cbe 1bf8 6a3d 33e9 943d 7a43 cc3d
00000290: 4eef d0bd 270f 37bd a643 153d 4e44 963e
000002a0: fc03 9d3d 5cb1 813e 8964 e0bd 5d29 1e3e
000002b0: 619f 8fbe 2117 abbd e0aa d43d 8f85 7e3c
000002c0: d9d6 ea3d 4ecc 903e a2a0 c53e 7130 51bc
000002d0: faeb f1bd 448a 51bd d20b f93c 558d e93d
000002e0: 7ac6 8a3e eb7a dc3c c7d0 adbd 63db 93bd
000002f0: ec17 f3bd 81d8 463c b98e dcbc 8ee4 acbd
00000300: 84cf 3cbe b8c1 f43e 2059 b63d 3749 b83d
00000310: 73ae d3be 3cc9 a53c 9820 dbbd 6d9e 793e
00000320: 555d 7b3d d2f4 12be 5b34 1d3f 013c 4cbe
00000330: 335c 77bd 9b3a 033d e4a9 083c 8a21 1fbc
00000340: 97d1 713d 7bf2 9dbc 5d1b 9e3d 50c4 afbe
00000350: dc9d 82be a6ad c0bd d9c2 d43d 773c 4f3d
00000360: d7f5 1d3e 0ea5 8bbe c077 2e3d f2c0 95bd
00000370: 0291 033e f8be c93d a453 713c 872f 87bc
00000380: 9895 9dbd 1824 d33d 53bc 383d 9995 c63d
00000390: 5a5b 43bd f326 553d 99c6 453e 3ee9 383e
000003a0: e627 23be 0e53 923d 837a 4dbe 020c e03c
000003b0: 4cec 17bc cec0 063c 3365 0f3e c524 503c
000003c0: 74af 1a3c 502b 513e 5e35 3c3d df23 5b3d
000003d0: 3c71 52be 4a19 21be 4ef0 72be 2689 dc3e
000003e0: fb4e bfbe 3f46 77bd 41b8 603e 09f9 f03c
000003f0: 055e 27bd b10c 123e fbd9 d9bd 6043 923e

lm1.bias f4 [12]
0.024212064 -0.06794574 -0.02817622 -0.0704989 0.173105 -0.1039316 -0.057131775 0.09463929
-0.20025374 0.10113774 0.039532237 0.10391771
00000000: 6158 c63c 2327 8bbd d1d1 e6bc ba61 90bd
00000010: 7042 313e 17da d4bd 0203 6abd 3ed2 c13d
00000020: 510f 4dbe 4e21 cf3d 8eec 213d cfd2 d43d

lm2.weight f4 [12, 12, 3, 3]
-0.1842284 0.06719141 -0.07671291 -0.024882551 -0.5880585 -0.043204997 -0.12070717 0.4205788
-0.0569408 0.10340236 0.4111281 -0.29114777 -0.012090654 -0.26981062 0.06662478 -0.018341457
0.28387082 -0.123745054 -0.06068527 -0.35146928 -0.071811885 0.15157168 0.5311375 -0.090980604
-0.08086392 -0.20319808 0.15601867 -0.08552017 0.15254638 -0.14103201 0.15640461 -0.031236283
0.1184116 -0.0072835535 -0.119280435 0.22192614 -0.028170044 -0.10448189 -0.04056511 -0.087527856
0.72401774 -0.060266867 -0.15662748 -0.079007275 0.06576158 -0.009924243 -0.3155774 0.09029337
-0.15710741 0.024863686 0.3689463 0.001401324 -0.20416744 0.008656603 0.03723064 0.06772485
-0.106462866 -0.08789417 0.9361423 -0.41215438 -0.017226191 -0.34930772 0.07466155 0.18789859
0.22518791 0.061828174 -0.026032625 -0.63801646 -0.15393496 0.0912858 0.26398584 0.14387879
0.04273821 -0.20179637 0.08352222 0.12471434 -0.23525356 0.046378102 0.10685172 -0.13683218
0.13362072 -0.0863734 -0.32511067 0.15357895 0.051294204 -0.21207647 0.05484972 -0.0706359
0.08471769 0.004628917 0.039112 0.2548496 0.10288177 -0.2009451 0.37979653 -0.16595475
-0.0037920806 0.017729199 -0.1649051 -0.1066921 0.045320198 0.11510192 -0.24308425 0.10655446
-0.01165622 -0.018633505 0.13490123 -0.061581172 0.024761828 0.1318142 -0.0022870994 0.12169168
-0.5444126 0.45768854 -0.007081389 -0.054085266 -0.053631935 -0.010359884 0.19539414 -0.029648779
-0.04456129 -0.11833057 0.15447453 -0.087536044 0.016068416 0.17580716 -0.013201142 -0.073369116
0.14942247 -0.055012856 -0.028645417 -0.08893731 0.052280214 -0.106290236 -0.058805972 -0.10377583
0.048128754 -0.1731376 -0.23652592 0.8314278 0.4215001 0.14960092 -0.43366903 0.10816716
0.17186923 0.19351548 -0.1365662 -0.08605325 0.07599822 0.011695101 0.08559454 0.08785278
0.10202312 -0.086812876 -0.10637304 -0.010003188 -0.045438487 -0.2551019 -0.23759463 -0.050054446
-0.17850208 0.0036836995 -0.039825525 -0.013966399 -0.1249204 0.018951312 -0.14245836 0.28061974
0.03283222 -0.044031642 -0.080266036 0.05518637 -0.013389229 -0.02195819 0.0981002 0.3366391
-0.04264185 0.023854412 0.08028561 0.03471116 0.065150775 -0.16993465 0.020434061 -0.0101675615
-0.12342343 0.13270253 -0.014884874 0.04557671 0.04666688 -0.024241976 -0.108774036 0.07921234
-0.23499078 0.696613 -0.26577452 -0.0188142 -0.0124462135 -0.06257141 -0.10140321 0.19138694
0.11759848 -0.14060508 0.76808465 -0.18557113 -0.018873794 -0.119605154 0.16126756 0.11233136
-0.2501027 -0.11689103 -0.040749673 0.028461533 0.117717415 -0.07858687 -0.0106109725 -0.025118496
-0.021030128 -0.25790036 -5.7407244e-05 -0.022811836 0.5286269 0.07846496 -0.06766382 -0.17526609
-0.06842661 -0.014680989 -0.112953044 -0.18163985 -0.06237904 -0.22472286 -0.11034905 0.049868785
0.026229866 0.04805262 0.018355725 0.035731677 -0.06272955 -0.43124637 0.16555193 -0.23783374
-0.0120623885 -0.014541463 -0.07849727 0.09947895 -0.21990879 0.25889012 0.0047823912 0.13555124
0.018796442 0.13523197 -0.30556965 -0.0976498 -0.095696874 -0.026955608 -0.014529752 0.19540966
00000000: 5fa6 3cbe a69b 893d a81b 9dbd 7ed6 cbbc
00000010: 008b 16bf b9f7 30bd 5235 f7bd 1b56 d73e
00000020: c23a 69bd 9ec4 d33d 627f d23e 5211 95be
00000030: e117 46bc 9e24 8abe 9372 883d d340 96bc
00000040: 8457 913e 0c6e fdbd 1e91 78bd c8f3 b3be
00000050: 1c12 93bd 9b35 1b3e a1f8 073f 0a54 babd
00000060: fc9b a5bd 2813 50be 5cc3 1f3e 3325 afbd
00000070: 1e35 1c3e b26a 10be 8828 203e 3ce3 ffbc
00000080: c881 f23d e0aa eebb 4d49 f4bd 9b40 633e
00000090: ddc4 e6bc 9afa d5bd 9a27 26bd ce41 b3bd
000000a0: 3a59 393f 64da 76bd f462 20be 91ce a1bd
000000b0: 02ae 863d 4b99 22bc 5c93 a1be bbeb b83d
000000c0: c4e0 20be eeae cb3c 88e6 bc3e a2ac b73a
000000d0: 4511 51be 6dd4 0d3c 287f 183d 53b3 8a3d
000000e0: 3409 dabd dc01 b4bd 06a7 6f3f e605 d3be
000000f0: f11d 8dbc 76d8 b2be 28e8 983d 7d68 403e
00000100: a997 663e 8a3f 7d3d 5f42 d5bc 0c55 23bf
00000110: 20a1 1dbe 0df4 ba3d 2729 873e f654 133e
00000120: 430e 2f3d b5a3 4ebe b30d ab3d 3b6a ff3d
00000130: 4fe6 70be f7f6 3d3d 13d5 da3d bc1d 0cbe
00000140: dfd3 083e 8ae4 b0bd e874 a6be cd43 1d3e
00000150: df19 523d 932a 59be 1aaa 603d 8ea9 90bd
00000160: 7880 ad3d 2cae 973b e833 203d a67b 823e
00000170: adb3 d23d 8dc4 4dbe b174 c23e 0bf0 29be
00000180: 8e84 78bb d33c 913c e2dc 28be 6381 dabd
00000190: aca1 393d 8eba eb3d 14eb 78be 3a39 da3d
000001a0: bbf9 3ebc 4ba5 98bc 8c23 0a3e 8a3c 7cbd
000001b0: 51d9 ca3c 4dfa 063e 29e3 15bb 7d39 f93d
000001c0: a05e 0bbf 2756 ea3e ff0a e8bb 8388 5dbd
000001d0: 29ad 5bbd 81bc 29bc 6715 483e ffe1 f2bc
000001e0: e685 36bd 4c57 f2bd 922e 1e3e 1946 b3bd
000001f0: e9a1 833c cb06 343e 9a49 58bc 8c42 96bd
00000200: 3402 193e 2955 61bd cba9 eabc c424 b6bd
00000210: c723 563d b2ae d9bd 88de 70bd 6c88 d4bd
00000220: a822 453d fc4a 31be da33 72be 74d8 543f
00000230: dcce d73e fc30 193e de09 debe be86 dd3d
00000240: 7dfe 2f3e ec28 463e 03d8 0bbe b03c b0bd
00000250: f4a4 9b3d cf9c 3f3c 314c af3d 29ec b33d
00000260: 7ff1 d03d f3ca b1bd 1cda d9bd 69e4 23bc
00000270: b51d 3abd b79c 82be 024c 73be e405 4dbd
00000280: 40c9 36be 396a 713b 1720 23bd 53d3 64bc
00000290: 44d6 ffbd c83f 9b3c 9be0 11be 64ad 8f3e
000002a0: 147b 063d 865a 34bd 8562 a4bd 1a0b 623d
000002b0: 7f5e 5bbc a9e1 b3bc c2e8 c83d f65b ac3e
000002c0: 38a9 2ebd 546a c33c c86c a43d 4a2d 0e3d
000002d0: c56d 853d 5903 2ebe 5565 a73c d895 26bc
000002e0: 6cc5 fcbd 2ce3 073e b0df 73bc a5ae 3a3d
000002f0: c525 3f3d 1c97 c6bc ecc4 debd 143a a23d
00000300: 6ca1 70be 3b55 323f 9913 88be 3d20 9abc
00000310: 34eb 4bbc 7025 80bd 7cac cfbd f0fa 433e
00000320: 79d7 f03d c7fa 0fbe 32a1 443f 5c06 3ebe
00000330: 379d 9abc 8cf3 f4bd 5323 253e fc0d e63d
00000340: 760d 80be 9064 efbd 21e9 26bd 2928 e93c
00000350: d415 f13d 27f2 a0bd a5d9 2dbc 4ec5 cdbc
00000360: 6047 acbc 840b 84be 8fc8 70b8 e3df babc
00000370: 1854 073f 3db2 a03d 5493 8abd f478 33be
00000380: 4023 8cbd 8888 70bc ed53 e7bd ccff 39be
00000390: 2a81 7fbd c01d 66be affe e1bd 3643 4c3d
000003a0: 04e0 d63c d3d2 443d bf5e 963c 615b 123d
000003b0: 5a78 80bd 53cc dcbe 7286 293e b08a 73be
000003c0: 53a1 45bc 513f 6ebc 2dc3 a0bd 9fbb cb3d
000003d0: c52f 61be 3f8d 843e 9bb5 9c3b f2cd 0a3e
000003e0: fffa 993c 407a 0a3e a073 9cbe 9efc c7bd
000003f0: b9fc c3bd 02d2 dcbc 320e 6ebc 7819 483e

lm2.bias f4 [12]
0.05767286 0.0008761661 -0.026432078 0.14084414 0.09438983 0.041119397 0.29582018 -0.012122282
-0.030281054 -0.081230134 -0.22895107 -0.025559776
00000000: 603a 6c3d 83ae 653a 1688 d8bc 7239 103e
00000010: 754f c13d d06c 283d be75 973e 899c 46bc
00000020: f90f f8bc fc5b a6bd 2672 6abe bc62 d1bc

lm3.weight f4 [12, 12, 3, 3]
0.0057441187 -0.16714713 -0.005441352 -0.4280887 0.56244373 0.08984646 0.040292643 -0.35798323
0.11026417 0.13388972 0.20071834 -0.04094231 -0.028521104 0.18228915 -0.21979436 0.046179105
-0.011327535 0.09292818 -0.0502384 -0.021202365 -0.13970917 0.021264153 -0.15768962 0.09074706
0.03671029 -0.030126236 -0.026111092 -0.14206998 -0.30824894 -0.030188944 -0.0077027725 -0.3751035
-0.04883584 0.07780538 -0.049992852 -0.12188284 0.19982938 -0.10369659 -0.04470117 -0.014756769
-0.09313494 0.14459556 0.05159165 0.055219702 -0.07534883 0.03388502 -0.26891014 -0.046455603
-0.35804832 0.3442857 -0.2563631 0.037514884 -0.28319827 -0.18560264 -0.123152636 -0.13875964
0.073992826 -0.03640921 -0.098027565 0.14447305 0.026533604 -0.036081437 -0.051480163 -0.061200716
0.10483911 0.07853852 0.11765132 -0.34508473 -0.03368642 -0.047369786 0.042305354 -0.02419254
0.06583841 -0.037052426 -0.1636254 0.100693196 0.104314506 0.29705757 -0.04855858 0.018247476
0.06667015 0.030709427 -0.03537566 -0.030469542 0.043495793 -0.0038677184 0.21330203 -0.008078185
0.06409718 -0.040570207 0.25373363 0.11027695 -0.059414696 0.01980322 0.12135981 0.07241099
-0.08336912 0.11710426 -0.11099401 -0.073722735 0.026340984 0.03495741 -0.014953574 -0.5320998
0.2542591 0.04424175 0.29812232 -0.12175171 0.055190448 0.039185386 0.0619728 -0.24325243
0.061657365 -0.08318023 -0.018365955 -0.2086926 0.07536022 -0.032434955 -0.2638832 -0.10127553
0.14598349 0.6409576 0.0722032 -0.08851372 -0.029943837 -0.024223011 0.01473287 -0.16757049
-0.055398393 -0.03989464 -0.06066032 -0.028571961 -0.036495548 -0.044783384 -0.088009655 -0.14070146
-0.026245669 0.06838241 0.03870384 0.18382283 -0.087634824 0.0851299 0.0691726 -0.16402562
0.24529202 -0.3558506 0.011044708 -0.342299 0.5941077 -0.0956837 0.12133616 -0.11489372
0.00043270158 0.04929155 -0.06705791 0.16141152 -0.09206094 0.18132296 -0.04669439 0.09624546
-0.099668175 0.022364145 -0.047670767 -0.010334811 -0.036442813 -0.030364962 0.29748788 0.14207529
-0.016411286 -0.36799118 -0.04750846 -0.032939382 0.19997601 -0.14758143 -0.2575353 -0.30519354
0.10142514 0.038805168 0.05561645 -0.07617506 0.13536026 0.047809664 0.016363943 -0.15568262
-0.3459147 0.038309474 0.09646439 -0.2672844 0.06935051 -0.06293473 0.12359439 -0.0145718325
0.09036902 0.51279885 0.10841743 -0.098251335 0.1390147 -0.0017566514 0.017159577 0.33926648
-0.0086885765 0.12993374 -0.25808874 0.08777955 -0.0011916889 0.046830524 -0.036170695 0.04024149
-0.15063715 0.16293126 -0.04669878 -0.14509375 -0.21720384 0.05448414 0.23372848 -0.058617275
-0.090623036 0.066534035 -0.044897843 -0.2265486 0.24742734 -0.28531808 0.07749082 -0.34130913
0.10876916 0.28141183 -0.3985428 0.13915317 0.08467443 0.48938107 -0.240069 -0.02391519
-0.17282932 0.14441457 0.20729834 0.14099085 -0.07722042 -0.019496966 0.05246866 0.07618698
-0.0023393335 0.15685198 0.02188864 -0.07014099 0.18928847 0.22622369 -0.0052692513 -0.21792752
-0.21987917 -0.009193024 0.10583328 -0.05405587 -0.0066331276 0.03181301 -0.14939915 0.011563417
00000000: 2939 bc3b 9e28 2bbe 5e4d b2bb 712e dbbe
00000010: 50fc 0f3f 6c01 b83d e609 253d 9449 b7be
00000020: 2ed2 e13d 631a 093e 1c89 4d3e 20b3 27bd
00000030: 17a5 e9bc 02aa 3a3e c611 61be 4d26 3d3d
00000040: 2097 39bc 2151 be3d c8c6 4dbd 95b0 adbc
00000050: ec0f 0fbe 2932 ae3c 6379 21be 98d9 b93d
00000060: 875d 163d 4ccb f6bc eee6 d5bc cb7a 11be
00000070: ced2 9dbe ce4e f7bc 8a67 fcbb 910d c0be
00000080: 1708 48bd 6d58 9f3d 4ec5 4cbd b69d f9bd
00000090: 13a0 4c3e e15e d4bd 9318 37bd 60c6 71bc
000000a0: 88bd bebd dc10 143e c451 533d 0e2e 623d
000000b0: 7d50 9abd 05cb 0a3d 97ae 89be 3b48 3ebd
000000c0: 1c52 b7be 3746 b03e 0642 83be 35a9 193d
000000d0: 5dff 90be 9e0e 3ebe 7337 fcbd 0217 0ebe
000000e0: 8d89 973d d321 15bd adc2 c8bd bef0 133e
000000f0: 005d d93c 21ca 13bd dddc 52bd 9aad 7abd
00000100: e3b5 d63d ced8 a03d 2df3 f03d f2ae b0be
00000110: c6fa 09bd d206 42bd 6148 2d3d 6f2f c6bc
00000120: 4ad6 863d 49c4 17bd 6b8d 27be 3c38 ce3d
00000130: d8a2 d53d ee17 983e 5de5 46bd bb7b 953c
00000140: 5c8a 883d 5692 fb3c 11e6 10bd 439b f9bc
00000150: a528 323d 8c79 7dbb d96b 5a3e 5d5a 04bc
00000160: 6245 833d f22c 26bd 60e9 813e e2d8 e13d
00000170: d35c 73bd 5d3a a23c 7e8b f83d 374c 943d
00000180: 6ebd aabd 5cd4 ef3d d450 e3bd f2fb 96bd
00000190: 0cc9 d73c 802f 0f3d d6ff 74bc b137 08bf
000001a0: 402e 823e d636 353d 7da3 983e f658 f9bd
000001b0: 610f 623d db80 203d 31d7 7d3d 2a17 79be
000001c0: 6f8c 7c3d 655a aabd 3374 96bc 83b3 55be
000001d0: 7656 9a3d 84da 04bd b31b 87be 8c69 cfbd
000001e0: b27c 153e cc15 243f 45df 933d ae46 b5bd
000001f0: c74c f5bc 566f c6bc 2362 713c 9997 2bbe
00000200: 6de9 62bd 9068 23bd f576 78bd bf0f eabc
00000210: 5b7c 15bd c86e 37bd 683e b4bd 0b14 10be
00000220: 2801 d7bc 140c 8c3d eb87 1e3d 0d3c 3c3e
00000230: e379 b3bd 9658 ae3d 5daa 8d3d 55f6 27be
00000240: d52d 7b3e 0d32 b6be ddf4 343c d141 afbe
00000250: 7117 183f d1f5 c3bd 187f f83d 664d ebbd
00000260: 39dc e239 f0e5 493d a855 89bd 1049 253e
00000270: 728a bcbd baac 393e 9e42 3fbd 571c c53d
00000280: d41e ccbd 0335 b73c 6c42 43bd 5753 29bc
00000290: 0f45 15bd f1bf f8bc 5550 983e 2f7c 113e
000002a0: f670 86bc 5769 bcbe 3b98 42bd 72eb 06bd
000002b0: 83c6 4c3e 961f 17be abdb 83be 5442 9cbe
000002c0: fcb7 cf3d 2bf2 1e3d 13ce 633d ab01 9cbd
000002d0: e19b 0a3e 11d4 433d ad0d 863c 446b 1fbe
000002e0: bb1b b1be 65ea 1c3d 1f8f c53d 80d9 88be
000002f0: a407 8e3d ece3 80bd 0e1f fd3d b2be 6ebc
00000300: 6513 b93d c946 033f f509 de3d ff37 c9bd
00000310: df59 0e3e 713f e6ba 3e92 8c3c 56b4 ad3e
00000320: 885a 0ebc 5a0d 053e 3524 84be c4c5 b33d
00000330: 7232 9cba 5dd1 3f3d b927 14bd 43d4 243d
00000340: a040 1abe 74d7 263e 3847 3fbd 7593 14be
00000350: af6a 5ebe c32a 5f3d 8556 6f3e ab18 70bd
00000360: 9298 b9bd ff42 883d cde6 37bd 5bfc 67be
00000370: 985d 7d3e 3615 92be 82b3 9e3d 12c0 aebe
00000380: 5ec2 de3d 3615 903e cd0d ccbe 2b7e 0e3e
00000390: ca69 ad3d 2890 fa3e a6d4 75be cae9 c3bc
000003a0: 2bfa 30be 6ae1 133e 0446 543e e85f 103e
000003b0: bd25 9ebd 1ab8 9fbc 61e9 563d eb07 9c3d
000003c0: 814f 19bb ce9d 203e ce4f b33c 14a6 8fbd
000003d0: d6d4 413e 2fa7 673e afa9 acbb 6428 5fbe
000003e0: 0128 61be 569e 16bc 1ebf d83d b069 5dbd
000003f0: b55a d9bb 5c4e 023d 17fc 18be 7c74 3d3c

lm3.bias f4 [12]
-0.30310842 0.078222506 0.20733406 -0.044797488 -0.0507126 -0.09336683 0.15855156 0.26026624
-0.10668355 -0.034009643 0.09373864 0.3342925
00000000: 0731 9bbe 1f33 a03d 614f 543e 927d 37bd
00000010: 04b8 4fbd 1c37 bfbd 575b 223e 9e41 853e
00000020: e87c dabd b24d 0bbd 0bfa bf3d 6328 ab3e

lm4.weight f4 [12, 12, 3, 3]
0.15011352 0.28120378 0.037475314 -0.18931843 0.5290457 -0.045062024 0.027960697 -0.06993676
0.04792685 -0.09073158 -0.098358184 0.009670925 0.0021574188 0.29941666 0.03504369 0.06587865
0.063276194 0.016374419 0.2219655 0.13355297 -0.09541436 -0.31647807 -0.08075457 0.069090255
0.10217573 -0.007190851 0.10878377 0.032015495 -0.16033949 0.055191252 -0.338076 0.46504396
-0.036720794 -0.054064997 0.06250249 -0.03870727 0.028413193 0.008103054 -0.021370497 -0.05794225
0.31538588 -0.17393984 -0.07495241 -0.15438029 -0.049463037 0.047085192 0.14598 0.0359208
-0.16534106 -0.44750658 0.12832487 0.058144778 -0.057856232 0.00015753768 0.028497051 0.2830242
0.0010386412 0.03991642 -0.3292376 0.20853364 -0.016635714 0.014346899 -0.028029656 0.022645215
-0.12645856 -0.18698938 0.0073846253 -0.26694474 -0.04674801 0.007687936 -0.0700078 0.10746339
0.14899096 -0.09558041 -0.036475156 0.011060597 0.06455428 0.15012893 -0.09167275 0.049139343
-0.030518966 0.08610409 -0.19932273 0.095632724 -0.2495955 0.31012094 -0.027175821 0.035489235
-0.06829072 -0.11132626 0.21030523 0.059390042 -0.022150924 0.075680725 0.3020707 0.19269961
-0.000859471 -0.20778131 -0.089875236 -0.044640433 -0.34599295 -0.18419385 0.16707031 0.43481064
0.13912478 0.07466381 -0.14661212 0.10026003 0.1258903 0.12214716 0.45280623 -0.14319777
-0.19488017 0.17275669 0.102653995 0.21650465 -0.21144511 0.015778685 -0.0044280128 -0.120171264
-0.21748294 0.19290754 -0.098936155 -0.08925896 0.05930672 0.10147419 0.49493858 0.02713664
-0.31257477 -0.09290935 -0.3480391 0.10768455 -0.0074086646 0.17057425 0.15684234 -0.0712208
0.08229843 0.114291996 -0.078759186 -0.028349971 -0.39508948 0.056901295 -0.2083323 -0.008739678
0.057448592 -0.060731363 -0.13993743 -0.0059359567 -0.09734283 0.22341073 0.13242154 -0.3107948
0.010172199 0.07747577 0.116207525 -0.035907336 0.12203635 -0.34114936 -0.17142977 -0.110454425
0.19602399 -0.042384647 -0.06741953 -0.041262478 -0.103970796 0.115386136 0.19464943 -0.07220322
-0.035423797 -0.27588597 -0.009104993 -0.15168679 -0.08994013 -0.21688898 -0.025819289 0.4488392
0.12416293 -0.11927722 0.26659155 0.07823314 0.15120503 0.048380565 0.15554866 0.06993682
0.18428302 0.05589278 0.033026677 -0.28208613 -0.002559579 -0.03636799 -0.09782029 0.18069409
0.1443428 -0.03179684 -0.13474983 -0.08552279 0.0036823503 -0.12590864 0.15456909 0.27667654
0.11218997 -0.118096605 0.5761693 -0.06995746 -0.10547567 0.071924165 -0.098977365 -0.20407526
-0.09767264 -0.23015751 -0.18983944 0.017755268 0.31786674 0.10851372 0.15598056 0.019841807
0.2120115 -0.20506193 0.07048517 0.38730222 0.07770974 -0.09380514 -0.036878657 0.08623329
-0.13733795 0.08604645 0.28140888 -0.00082523754 -0.14211926 0.057212245 0.113181435 -0.13388331
0.13781838 0.097634695 0.06564025 0.008161841 -0.0767334 0.20227621 0.50859 0.058255818
-0.13661233 -0.30859992 0.04877365 0.06656085 0.047462042 0.15324111 0.47541878 -0.20939767
-0.0042151934 0.19958189 -0.16812104 -0.045886505 0.12827776 0.09583334 -0.11509806 -0.17266324
00000000: 5cb7 193e f1f9 8f3e b77f 193d b1dc 41be
00000010: 8a6f 073f f592 38bd d50d e53c 013b 8fbd
00000020: f24e 443d 7bd1 b9bd 0470 c9bd cd72 1e3c
00000030: 7b63 0d3b 244d 993e f989 0f3d 63eb 863d
00000040: f396 813d a523 863c ed4a 633e 1cc2 083e
00000050: 9b68 c3bd 6a09 a2be a762 a5bd 317f 8d3d
00000060: 8241 d13d 3ba1 ebbb 06ca de3d ae22 033d
00000070: 0930 24be 3910 623d 4c18 adbe 3e1a ee3e
00000080: 8b68 16bd 4273 5dbd 4e01 803d 848b 1ebd
00000090: c9c2 e83c acc2 043c 2e11 afbc da54 6dbd
000000a0: 427a a13e 491d 32be a680 99bd de15 1ebe
000000b0: c199 4abd 67dc 403d c87b 153e b021 133d
000000c0: 2b4f 29be 951f e5be 9867 033e 3829 6e3d
000000d0: a8fa 6cbd b330 2539 a672 e93c 8ce8 903e
000000e0: 0423 883a 667f 233d d591 a8be d889 553e
000000f0: 9f47 88bc 420f 6b3c 739e e5bc 7582 b93c
00000100: 5a7e 01be 257a 3fbe bafa f13b fbac 88be
00000110: d77a 3fbd 15eb fb3b 4060 8fbd c415 dc3d
00000120: 1691 183e a9bf c3bd f966 15bd 8237 353c
00000130: 0935 843d 66bb 193e ecbe bbbd 5646 493d
00000140: e902 fabc 5757 b03d 421b 4cbe 17db c33d
00000150: f695 7fbe 2cc8 9e3e d49f debc 295d 113d
00000160: 01dc 8bbd 06ff e3bd 415a 573e f942 733d
00000170: db75 b5bc 7ffe 9a3d 03a9 9a3e 0c53 453e
00000180: 1f4e 61ba a0c4 54be 8210 b8bd e3d8 36bd
00000190: fd25 b1be 509d 3cbe 7b14 2b3e 809f de3e
000001a0: ba76 0e3e 57e9 983d 7d21 16be 2155 cd3d
000001b0: 63e9 003e 4a28 fa3d 38d6 e73e 70a2 12be
000001c0: ab8e 47be 21e7 303e 423c d23d 65b3 5d3e
000001d0: 1185 58be 4d42 813c dd18 91bb 5a1c f6bd
000001e0: d9b3 5ebe 8e89 453e 0a9f cabd 67cd b6bd
000001f0: 9aeb 723d b3d1 cf3d 9768 fd3e a94d de3c
00000200: cd09 a0be 4247 bebd 2e32 b2be b889 dc3d
00000210: 62c4 f2bb 04ab 2e3e 479b 203e 36dc 91bd
00000220: 148c a83d ec11 ea3d 7f4c a1bd 333e e8bc
00000230: 2b49 cabe 5511 693d 1055 55be de30 0fbc
00000240: 374f 6b3d 73c1 78bd c24b 0fbe 6a82 c2bb
00000250: ad5b c7bd c8c5 643e 8399 073e 7f20 9fbe
00000260: 4ca9 263c 9eab 9e3d 36fe ed3d 9213 13bd
00000270: 32ee f93d 21ab aebe 498b 2fbe ee35 e2bd
00000280: 83ba 483e 869b 2dbd 4013 8abd d802 29bd
00000290: a4ee d4bd 914f ec3d 2e52 473e 48df 93bd
000002a0: 8b18 11bd ed40 8dbe 1c2d 15bc c853 1bbe
000002b0: 8832 b8bd 2518 5ebe f982 d3bc 40ce e53e
000002c0: 2249 fe3d 9d47 f4bd b07e 883e b238 a03d
000002d0: 7ed5 1a3e b32a 463d 2648 1f3e 093b 8f3d
000002e0: b0b4 3c3e d4ef 643d fb46 073d 986d 90be
000002f0: 9cbe 27bb 9af6 14bd 0156 c8bd df07 393e
00000300: 99ce 133e 673d 02bd dcfb 09be 9326 afbd
00000310: 9653 713b 32ee 00be 5c47 1e3e 8ca8 8d3e
00000320: dbc3 e53d a2dc f1bd d57f 133f db45 8fbd
00000330: a103 d8bd fa4c 933d a5b4 cabd 1bf9 50be
00000340: 9808 c8bd 69ae 6bbe 4565 42be 7f73 913c
00000350: 6ebf a23e 713c de3d 5eb9 1f3e 498b a23c
00000360: 8b19 593e c1fb 51be 875a 903d 7a4c c63e
00000370: 4926 9f3d e91c c0bd 130e 17bd 149b b03d
00000380: 52a2 0cbe 1f39 b03d d314 903e c154 58ba
00000390: b687 11be 6357 6a3d abcb e73d b518 09be
000003a0: 4320 0d3e b3f4 c73d 656e 863d 3eb9 053c
000003b0: 6726 9dbd 7f21 4f3e f432 023f a79d 6e3d
000003c0: 1ae4 0bbe cf00 9ebe e1c6 473d 0e51 883d
000003d0: 8f67 423d 3deb 1c3e 176a f33e 586c 56be
000003e0: 9b1f 8abb 325f 4c3e ec27 2cbe 7df3 3bbd
000003f0: 3f5b 033e 4544 c43d 88b8 ebbd a2ce 30be

lm4.bias f4 [12]
0.14703771 0.13433467 0.2565231 -0.023549035 -0.14535347 0.07213881 0.21259749 0.016890138
0.10324088 0.12048367 -0.13050099 0.24806935
00000000: 0e91 163e 078f 093e ff56 833e e8e9 c0bc
00000010: 8ad7 14be 83bd 933d 28b3 593e 305d 8a3c
00000020: f46f d33d 24c0 f63d 0da2 05be e405 7e3e

expanding.weight f4 [48, 12, 1, 1]
0.087647855 0.22497477 0.48602337 0.114910364 0.06176642 -0.19398539 0.0050727464 0.019588122
0.34384206 -0.50833726 -0.28419843 -0.65483236 -0.5487687 0.13506983 0.2673188 0.56284314
0.1851877 0.18302141 -0.2290305 -0.30115643 0.0015701264 0.5172343 -0.5750048 -0.48213777
-0.7209075 0.016426524 -0.2793139 0.31236592 -0.1466193 -0.10136419 0.06772243 -0.008912309
-0.15104015 0.2571328 0.71309483 -0.07402744 0.36930478 0.06814658 0.679562 -0.11771701
-0.3091799 -0.31397396 0.0396377 -0.1843568 0.43722862 0.090882726 0.4562593 0.28924245
0.20810488 -0.81425333 0.36740047 0.53703874 0.21174726 0.30962768 0.19922839 -0.0033288274
-0.35410777 -0.3314301 0.084408395 0.6952565 0.31731308 -0.007595255 -0.15278721 -0.056575246
0.65321976 -0.3378252 0.24526118 0.1881208 0.65257066 0.59486806 0.6235764 -0.1778156
-0.6235445 0.96552944 0.16810404 -1.1074399 0.5452408 -0.62280154 -0.8438696 0.68199706
-0.82536477 0.20099865 -0.68421334 -0.75217676 0.4487098 0.7791396 0.37359217 0.55905503
0.12157307 -0.18607046 -0.4108082 0.23450878 -0.41539112 -0.045267373 0.1485603 0.044029858
0.26420105 0.6573598 -0.06007948 -0.32005617 0.49427462 0.50121915 -0.20908001 0.18516923
-0.40653172 -0.0022094587 -0.11818778 0.55885583 -0.21546827 0.17280415 -0.097640514 -0.20944268
0.1841016 -0.25551727 -0.15899199 0.14474879 0.01763644 -0.10124973 0.13412398 0.35356712
-0.1460311 0.40469617 -0.42612782 -0.09497492 0.26264885 0.15017661 0.38693136 -0.4275285
0.05279766 -0.052130923 0.64062905 -0.5047518 0.51673347 0.16947986 -0.50180334 0.27669275
0.090705715 -0.9257435 -0.11946254 0.9802693 -0.69127905 -0.6925599 -1.0479182 1.0917215
0.3022006 -0.58633906 0.0014118403 -0.44913518 0.21782914 -0.0060111703 -0.31565115 0.13474491
0.22966458 -0.12365864 0.29069927 0.19710086 0.022538608 -0.22274812 -0.15213731 -0.14789888
-0.30627435 0.1685476 0.1594053 0.13484561 -0.040751673 -0.08476795 0.12006209 0.13830912
0.91962886 0.060162004 0.27850768 0.067085035 -0.021628309 -0.19349737 -0.12838072 -0.27505112
-0.3540581 -0.44140503 0.37162733 1.0404747 -0.097042575 0.32719564 0.5762904 -0.027390756
0.09394885 -0.22243352 -0.13092172 -0.24287525 -0.1013845 0.37662092 0.09184892 -0.5958138
-0.077231444 -0.10299928 0.14838584 0.17724836 -0.0005578 0.25308537 0.05289086 -0.24767792
-0.054268807 0.2836645 -0.31074652 -0.16655494 0.50458485 -0.103348166 0.09880812 0.34338066
-0.09057169 -0.27203742 -0.29402608 0.3399953 -0.077681854 -0.382546 0.10649997 0.18550605
0.25894612 0.6128603 -0.21874581 -0.033584874 -0.06402074 -0.0058201766 -0.03545813 0.54685426
0.11816619 -0.43252584 -0.027198857 0.89057034 0.38848677 0.3380961 0.0013320502 -0.030797085
-0.43690845 0.80725336 -0.19442746 0.16114995 0.31900463 0.28406855 -0.0113594895 0.14976792
0.06140493 0.5811288 0.101535894 -0.7135945 -0.27698222 -0.28335497 0.33099106 0.21199928
0.22856991 0.023200199 -0.09808558 -0.39556453 -0.20499606 0.27976722 -0.25786003 0.160159
00000000: b880 b33d c95f 663e 0ed8 f83e 2056 eb3d
00000010: c9fe 7c3d 1ba4 46be 4839 a63b 4577 a03c
00000020: 110c b03e 6422 02bf 7582 91be 18a3 27bf
00000030: 1b7c 0cbf bf4f 0a3e 02de 883e 7d16 103f
00000040: d8a1 3d3e f769 3b3e f986 6abe 2d31 9abe
00000050: b3cc cd3a 7869 043f 8433 13bf c3da f6be
00000060: 658d 38bf eb90 863c 3b02 8fbe 6dee 9f3e
00000070: 5f23 16be 0798 cfbd 0fb2 8a3d ef04 12bc
00000080: 45aa 1abe e9a6 833e 628d 363f b39b 97bd
00000090: 8415 bd3e 6f90 8b3d c6f7 2d3f 9e15 f1bd
000000a0: d44c 9ebe 32c1 a0be 245b 223d 07c8 3cbe
000000b0: 6edc df3e b920 ba3d d29a e93e 9617 943e
000000c0: 7219 553e e872 50bf ea1b bc3e 5f7b 093f
000000d0: 46d4 583e 8587 9e3e 8702 4c3e 7528 5abb
000000e0: 9d4d b5be 35b1 a9be 4fde ac3d 54fc 313f
000000f0: dc76 a23e 9ee1 f8bb 4074 1cbe 72bb 67bd
00000100: 6939 273f 6df7 acbe bf25 7b3e bda2 403e
00000110: df0e 273f 4649 183f b4a2 1f3f 4b15 36be
00000120: 9da0 1fbf f02c 773f 7723 2c3e 97c0 8dbf
00000130: e794 0b3f ec6f 1fbf d707 58bf 5c97 2e3f
00000140: 1b4b 53bf 97d2 4d3e 9b28 2fbf a88e 40bf
00000150: 4abd e53e b175 473f 7947 bf3e 3b1e 0f3f
00000160: 4dfb f83d 4189 3ebe 7455 d2be 1223 703e
00000170: 25ae d4be 486a 39bd 3120 183e a758 343d
00000180: 5c45 873e bb48 283f e715 76bd 67de a3be
00000190: 9011 fd3e e64f 003f 1219 56be 019d 3d3e
000001a0: ed24 d0be 91cc 10bb 6f0c f2bd 2d11 0f3f
000001b0: b7a3 5cbe 92f3 303e c0f7 c7bd 2478 56be
000001c0: 2185 3c3e 29d3 82be ccce 22be 0739 143e
000001d0: 4c7a 903c 055c cfbd cc57 093e c006 b53e
000001e0: 2d89 15be 5634 cf3e 6d2d dabe 3682 c2bd
000001f0: e979 863e e6c7 193e de1b c63e 04e5 dabe
00000200: 5c42 583d 3c87 55bd 4400 243f 6a37 01bf
00000210: a548 043f 218c 2d3e 2f76 00bf acaa 8d3e
00000220: ebc3 b93d 87fd 6cbf c7a8 f4bd eef2 7a3f
00000230: aaf7 30bf 9b4b 31bf 2f22 86bf 88bd 8b3f
00000240: 09ba 9a3e 511a 16bf 800d b93a 0cf5 e5be
00000250: 9a0e 5f3e 5af9 c4bb 079d a1be 92fa 093e
00000260: 312d 6b3e be40 fdbd 89d6 943e cfd4 493e
00000270: e3a2 b83c 1518 64be e2c9 1bbe ce72 17be
00000280: fecf 9cbe be97 2c3e 253b 233e f814 0a3e
00000290: 3aeb 26bd d29a adbd 1de3 f53d e8a0 0d3e
000002a0: cc6c 6b3f 6f6c 763d 8f98 8e3e e163 893d
000002b0: da2d b1bc 2d24 46be 3c76 03be 80d3 8cbe
000002c0: 1a47 b5be d7ff e1be f045 be3e 462e 853f
000002d0: 42be c6bd 3086 a73e c587 133f 9462 e0bc
000002e0: 4168 c03d 9dc5 63be 5810 06be 4ab4 78be
000002f0: ada2 cfbd 75d4 c03e 491b bc3d 4187 18bf
00000300: 852b 9ebd 49f1 d2bd 75f2 173e 9880 353e
00000310: 5339 12ba 6894 813e 16a4 583d 489f 7dbe
00000320: f848 5ebd 793c 913e 2b1a 9fbe 618d 2abe
00000330: 792c 013f 34a8 d3bd e95b ca3d 97cf af3e
00000340: a67d b9bd 7d48 8bbe 968a 96be dd13 ae3e
00000350: aa17 9fbd 12dd c3be a81c da3d 4cf5 3d3e
00000360: 9694 843e 6ae4 1c3f e7fe 5fbe 4b90 09bd
00000370: 4e1d 83bd 2eb7 bebb 8b3c 11bd a4fe 0b3f
00000380: 1e01 f23d 0774 ddbe 23d0 debc 6bfc 633f
00000390: bde7 c63e ef1a ad3e 3098 ae3a 2b4a fcbc
000003a0: 77b2 dfbe 28a8 4e3f fe17 47be 7e04 253e
000003b0: 9354 a33e 6f71 913e 271d 3abc c35c 193e
000003c0: bc83 7b3d dbc4 143f 0df2 cf3d 21ae 36bf
000003d0: 9dd0 8dbe e713 91be a977 a93e 5716 593e
000003e0: 3b0e 6a3e 580e be3c 18e1 c8bd 6f87 cabe
000003f0: 7dea 51be a63d 8f3e 3b06 84be b900 243e

expanding.bias f4 [48]
0.21494864 -0.12370356 -0.1769087 -0.22740005 0.27088422 -0.3184644 -0.26302683 -0.05994517
-0.19235852 0.091433845 0.07953784 -0.10622451 0.25019625 0.038947392 0.09020144 0.15258259
0.09395328 0.08863021 -0.037621625 0.044569705 0.10450291 -0.0619185 0.24289852 -0.054796338
0.14818868 -0.23503241 -0.030669887 0.22632961 -0.22430806 0.1464655 -0.13442364 -0.027211819
-0.37870327 -0.1151368 -0.06969103 -0.08957947 0.19293107 -0.13341725 -0.17222072 -0.046968516
-0.13905187 0.098164834 -0.43800607 -0.36136916 0.07143237 0.10767915 -0.017748384 0.026377134
00000000: 7f1b 5c3e 4b58 fdbd 8e27 35be 8fdb 68be
00000010: 56b1 8a3e c40d a3be 74ab 86be 1189 75bd
00000020: a2f9 44be ab41 bb3d bce4 a23d 3c8c d9bd
00000030: b919 803e 4d87 1f3d 88bb b83d 9c3e 1c3e
00000040: 946a c03d c183 b53d 2219 1abd b98e 363d
00000050: 9f05 d63d 419e 7dbd 64ba 783e 2072 60bd
00000060: c6be 173e 56ac 70be 6a3f fbbc f3c2 673e
00000070: 03b1 65be 0dfb 153e 5aa6 09be 52eb debc
00000080: 65e5 c1be d8cc ebbd 2cba 8ebd 7175 b7bd
00000090: b98f 453e 889e 08be a15a 30be 0f62 40bd
000000a0: 9d63 0ebe a50a c93d 5542 e0be 6105 b9be
000000b0: 224b 923d e386 dc3d 0f65 91bc dc14 d83c
