model/progress/model-3x.ckpt (torch_old, 270136 bytes, 48 tensors)

feature_extraction.weight f4 [48, 3, 5, 5]
00000000: 73f8 f23c f85d 243e 8be9 05be 7a8a 1d3f
00000010: 44dc 983e 6679 72bc 9f1d 40bf 9d30 5ebf
00000020: 7493 cd3d 45e6 bdbd 980b fb3d 6f15 27bf
00000030: 59a0 14bf 846f cebe 802f 11be 236f adbe
00000040: a36d 6bba 511b 3c3e a9d2 b33c a642 dfbd
00000050: 8455 16be f223 debc 1f1f 57be beaa e93e
00000060: c55c 1fbf 64f7 5bbe 0b01 99be 6f4d 5cbf
00000070: 91b8 a0be b25e 223e 720b 4dbe 453e 0bbf
00000080: dd7f 8dbe e722 56bf 1fc0 0dbf cc57 013e
00000090: 3e18 783e 24e9 7a3f 9a7c 2e3e 8b5f 173f
000000a0: 4c3e f4be 6db0 953e cfcd ad3e a64d 1f3e
000000b0: 79ae 0a3e af0a a1be 532b 303f 8816 90bc
000000c0: c29c 29bf fd21 b2bf f4c7 3a3f 4fc4 663f
000000d0: 6f84 2bbd 71fa 5c3d 0a6e ed3e 5805 823e
000000e0: a330 de3c e4aa b93e d776 203e 9e21 813e
000000f0: 7dc9 a0be f375 9cbf 40f5 3abf 1c2d fabe
00000100: c35e 4c3d 609d c73e 7ead e13d 5496 f13c
00000110: b1b4 283e 9e5e aabd 9dbc 053f 32c7 30be
00000120: cf9d 043c e0f6 1cbf 645f 083f 8b13 ecbe
00000130: ba2d 723e 9e53 ab3e e95e a9be ec8b cd3e
00000140: 345e 35bf b868 77bf 0da6 ddbe a5c5 bebf
00000150: 8be4 94bf 1915 23be 6f37 9fbe 85da 0dbe
00000160: 7e5d 7fbf 19d8 96bf a808 1dbd eeee c73c
00000170: 20d1 563d 276c 36be 7a7b d6bd 903f b03e
00000180: 3b5e eb3e af21 063f 9b64 0d3f 2fbe 2e3f
00000190: 7e7d 86be 6e6e f0be 2b58 74be fdc7 33bf
000001a0: c7d8 23bf fe1e 56be 8259 86bf 1ec6 44be
000001b0: a2a8 e5be 2d2c 2bbf 8541 2c3e 14e7 d3be
000001c0: cd7c c93e f467 b63e 7607 203d 3693 b63c
000001d0: 9277 23bf 37fc aabd fb75 9fbd c2b9 1fbf
000001e0: 3e08 b73c 9dea f6bd 56ce aabc 4f77 f33d
000001f0: 4c2d 3bbd a362 b7bd d4d9 463f 8ad2 bc3f
00000200: eb7b 3b3f 19f8 363f f07e 82bf f007 7abf
00000210: fce3 ac3e c8b2 82be 8fe1 843e 5597 6bbe
00000220: 1f50 1ebf b975 4d3e 6e11 883e 36d3 233f
00000230: 3e81 94bc dcfb eabe 0991 ee3d bdb6 e6be
00000240: 6c58 90bf 76d5 bd3e d287 843e a501 fe3e
00000250: a69c 8b3e ea58 b23e 6931 2b3e a95f bebd
00000260: 7e81 0c3d 19e8 6fbe a196 9e3d 7a29 b5be
00000270: 5baf 50bd 321d 2d3e 2ce7 793e d3ec 26bd
00000280: d2a7 fcbe 2e4f 173e fc29 203f a105 48bd
00000290: 5464 893d 0ec5 e3bd 9dc7 8d3a 61a8 b93e
000002a0: 0c56 b8be 4a5d 44be c643 0c3e b97e 5c3c
000002b0: b120 14be 04bb e4bd aabb 013e d01c 54be
000002c0: 5f9d c5bd 94f8 15bd 09ad 6c3c aa6f 35bc
000002d0: 7178 7b3e da6f 59be e78c 4b3e 9348 c33d
000002e0: 9268 d23e 13d4 073f c348 933d ae6b 0c3a
000002f0: f4a7 7abd c632 b4bd 44af dc3e b9a1 fdbe
00000300: 1619 0e3e 9c2f 0dbc b1a1 5dbe 2afd 243e
00000310: d45e 103e 07f9 2e3d 2d44 913d cdba 9dbd
00000320: 70a5 aebd 6def 553e c779 6d3d 56de 2bbd
00000330: 40f7 2bbe a1c6 1e3d 5df5 89be 5f25 da3d
00000340: 8c52 463e ce57 2fbe 484b 573b a724 a0be
00000350: 2cc1 06be c0e4 82bc 62ea 19be 215e 693c
00000360: 6c30 bfbe f6bf 7d3e 2c6f dc3e 1de4 dd3e
00000370: 2e7e aabe 69aa c93c 6662 97bd 555c f73d
00000380: 7833 f23d 7edb 3f3e ce98 91be c97f 613e
00000390: 93e0 93bd e39b a23c 9e94 94be 4370 503d
000003a0: 422c 683e 769c c93d 9988 f23b 8860 b23d
000003b0: 4edf 223c 212a 51be 11eb 273e af93 2f3d
000003c0: 62ad 0bbd 0ef2 0cbe 9978 673d bc08 9abd
000003d0: b999 adbc 88cf c9bd fff0 8fbd 3bf5 3f3e
000003e0: 84d4 6e3b 59ae 0dbc f462 a13d d780 8fbd
000003f0: 7690 72be 449e 0fbe ba85 593e eb17 3dbd
0.029659485 0.16051471 -0.13077371 0.61539423 0.2985555 -0.014799451 -0.750452 -0.8679293
0.1003789 -0.09272436 0.12258071 -0.6526708 -0.5805717 -0.40319455 -0.14178276 -0.33873853
-0.0008980876 0.18369795 0.021951037 -0.10901384 -0.14681059 -0.02711675 -0.21007966 0.45638078
-0.6225093 -0.21481091 -0.29883608 -0.86055654 -0.31390813 0.15856436 -0.20023897 -0.5439189
-0.27636614 -0.83647007 -0.5537128 0.12631148 0.24227998 0.98011994 0.17039719 0.5913016
-0.4770378 0.29236165 0.33946082 0.15556964 0.13543119 -0.31453463 0.6881611 -0.017588869
-0.6625482 -1.3916622 0.72961354 0.90143293 -0.041874345 0.053949777 0.46373016 0.25394702
0.027122801 0.36263192 0.15670334 0.2522096 -0.31403723 -1.2223495 -0.7303047 -0.4886254
0.04989506 0.38987255 0.11019419 0.029490627 0.16475178 -0.08318828 0.52240926 -0.17263487
0.008094265 -0.613142 0.53270555 -0.4610866 0.23650256 0.33462232 -0.33080223 0.40145814
-0.7084687 -0.96644163 -0.4329075 -1.4904066 -1.1632246 -0.15926017 -0.3109698 -0.1385289
-0.9975203 -1.1784698 -0.038338333 0.024405923 0.05244553 -0.17814694 -0.1047277 0.34423494
0.4597033 0.5239515 0.55231637 0.6825895 -0.26267618 -0.4695925 -0.23861758 -0.7022703
-0.6400265 -0.2091026 -1.0496066 -0.192162 -0.4485522 -0.6686428 0.16821869 -0.41387236
0.39353028 0.35626185 0.039069615 0.022286993 -0.63854325 -0.083488874 -0.07786175 -0.6239282
0.022342797 -0.12056468 -0.020850342 0.11887991 -0.045697495 -0.0895436 0.7767613 1.4751751
0.7323596 0.71472317 -1.0194988 -0.9766836 0.33767688 -0.25527024 0.25953338 -0.23006947
-0.61841005 0.20064439 0.26575798 0.6399416 -0.018128034 -0.45895278 0.11648757 -0.45061293
-1.1276984 0.3707692 0.25884873 0.4961063 0.2726795 0.3483346 0.16718067 -0.092955895
0.03430318 -0.23428382 0.07743574 -0.35383207 -0.050948482 0.16905668 0.24404591 -0.040753197
-0.49346787 0.14776298 0.62564063 -0.048833493 0.06708589 -0.111215696 0.0010816936 0.36261275
-0.3600315 -0.19176212 0.13697729 0.013457947 -0.14465596 -0.11168483 0.12669244 -0.20714116
-0.09649157 -0.036614016 0.014445552 -0.011073986 0.24557664 -0.21234074 0.19877969 0.09535327
0.41095406 0.53057975 0.071916126 0.00053566217 -0.06119533 -0.08798747 0.43102467 -0.49537447
0.13876757 -0.008617308 -0.21643712 0.161122 0.14098674 0.04271796 0.070930816 -0.07701645
-0.085276484 0.20892115 0.057977464 -0.041960083 -0.16793537 0.038763646 -0.2694501 0.10651659
0.19367427 -0.17123339 0.0032851268 -0.31277964 -0.13159627 -0.015978217 -0.15030816 0.0142436335
-0.3734163 0.24780259 0.43053567 0.433381 -0.33299392 0.02461739 -0.07391815 0.12078158
0.11826223 0.18736073 -0.28436893 0.22021402 -0.072205685 0.019849723 -0.29019636 0.05088831
0.22673133 0.09844296 0.0074015376 0.08709818 0.009940935 -0.20426227 0.16398264 0.04286545
-0.034100898 -0.13764212 0.056511495 -0.07521197 -0.021191465 -0.098540366 -0.07028388 0.18745892
0.0036442587 -0.008647525 0.07880202 -0.07006996 -0.2368792 -0.14025217 0.21242419 -0.046165388

feature_extraction.bias f4 [48]
00000000: 0749 a03d f97c 61be 64d1 693e 0fb2 b43c
00000010: 6a73 ccba 18f9 39bd 3783 0c3e 6544 c43b
00000020: 0280 acbf ae48 8e3d d0ed 603d e3a6 0a3f
00000030: e9c0 153f e8ae 40bd d3c5 2d3e 1ec4 f63e
00000040: b0af cebe 6420 ef3e 4dc5 1d3d 1454 c63d
00000050: f4c2 8e3d 2083 263c 79b0 143f 927d 1fbe
00000060: 9cd3 833d fe7c d93d 9474 093f ebfc c23e
00000070: 5069 ea3d a33b 273d 6df7 363e e896 f9bc
00000080: 996f 123e 5b33 cebf 8aca b93d 50d2 643e
00000090: 27bf dd3e f8eb c2bc 65a2 453d 4f12 66bf
000000a0: 62be 823f cda8 de3d f1ec d5bf 4ce8 5fba
000000b0: f3a6 5dbf 97fe 93bf 694e 863e d65b 933d
0.07826429 -0.2202033 0.22833782 0.022057561 -0.0015598361 -0.04540357 0.1372193 0.0059895986
-1.3476565 0.06947456 0.054914296 0.541609 0.5849748 -0.047041804 0.16969995 0.481965
-0.40368414 0.467044 0.03851824 0.096840054 0.06970778 0.010163099 0.58081776 -0.15575245
0.06436846 0.106195435 0.5369351 0.38083586 0.11445868 0.04082836 0.17867823 -0.030467466
0.14300384 -1.6109422 0.090718344 0.22345853 0.433099 -0.02379416 0.048250575 -0.89871687
1.021435 0.1087204 -1.6712934 -0.000854139 -0.8658287 -1.156207 0.26231697 0.07195251

shrink.weight f4 [12, 48, 1, 1]
00000000: 9f85 0cbe a3e7 1d3e 027f a93d 6d25 ecbd
00000010: d466 883d 7def a5be 94ba 2f3e 9167 fcbd
00000020: 239b a3bd 8fa4 21be 0c9d 7dbd cd64 89bd
00000030: f724 bb3e 2de0 dfbd 9965 ea3d d5cb 1e3d
00000040: 6d4b 98be a962 b23d f8c3 aabd a83b 3fbd
00000050: d12a ae3d 6eba 893e ba0c a63d 8d9c 963c
00000060: 1f59 6f3d fdcf 03be 1466 01be 4106 993b
00000070: b2e2 a83c b9aa 943c b6f7 e6bd a0bb c6be
00000080: 1148 a63c 8151 62bf e382 dcbd df36 f33e
00000090: eb06 0ebe 1348 97bd 1436 773c 5454 9ebe
000000a0: e359 fb3b 9b4b 0d3c b2e5 db3d 079a 4a3c
000000b0: bf78 5d3f a44d 9bbe e55e 41be ab66 d63d
000000c0: 840f 283f 0ccf 943f e69f 6b3d 0875 6f3e
000000d0: 77f3 04bd 591c 43bd a3d3 8bbd 3050 15bf
000000e0: 8fff ecbe e329 0abe 7d34 e53d fb6d 893d
000000f0: ab23 563e 3732 e3bd 2a31 b13d f0d6 22be
00000100: e63f 99bf 4f48 f7bd be0e 74bd e85e 97be
00000110: 231c 39bd d834 183e a5c8 5dbd 4e9e cd3d
00000120: 0cb2 53bd fdea 263d 9806 423e 2ff6 143d
00000130: cc79 1bbe ee4d c73d f7ff 57bd 20d4 bebf
00000140: 1037 dcbb 1ed5 263f 97e0 91bc 9c66 02be
00000150: 72bd 5b3e c348 423e 0c48 7dbd 20bd 92bf
00000160: bd85 49be 3abc 0a3e 487b 8c3e f627 c6bd
00000170: 5adb 9f3f 43fd 1dbf 3e4e 2ebd 8c25 243e
00000180: c7c4 aa3e 4128 f33d 4edb a83b 3015 b03c
00000190: 2b8a 64bd 7ec1 923d c731 343e 2e44 1fbe
000001a0: c6c4 26be 1c54 0dbd 539c c5bc fa72 16bc
000001b0: 687d f6bc 109c 97bc 4270 883d a1f1 bebc
000001c0: e887 93be 5657 53bd e041 23bd d214 b4be
000001d0: 698d c73d fbb8 83be d2ea 09be 805d 0a3e
000001e0: 5047 903c bd75 213d 6668 a4bb 7b5f d43c
000001f0: e811 923b a85a 9a3c 69ba 0c3d 013c 9bbe
00000200: ae54 283d 7227 123f e353 8c3e cbe4 263d
00000210: e3a0 5bbd 5ff9 0a3e 2a81 f1bc 22b4 13be
00000220: f1d0 afbd 59a7 f23c df0d 193e 1c17 03be
00000230: 5b89 9d3e fa03 c2be 18a7 1d3c 6a7a 89bd
00000240: afa4 bbbb 227d 1d3e 4e70 b5bd f906 983c
00000250: 5802 2e3d 61e0 09bd b48a b4be 5a8c 113d
00000260: 9ad3 01bc 0753 913d 00b2 a3bd a537 cd3d
00000270: 0df1 dd3c 47be cfbd be47 babd 6c82 11bd
00000280: 7565 fdbd 7752 70be b465 2cbd f849 403d
00000290: 6273 39bc bcc0 403e 870d 953e 1846 31bd
000002a0: a35a 583e aead 9d3b 4875 15bd 99a4 f9bd
000002b0: 43d7 433d b9e5 57bc bfdf 5bbc 56ee 0dbe
000002c0: f35f e43c 67a4 46bd e055 1d3e d55e b93e
000002d0: 218e 3c3d aeb3 01bd 37a7 be3b 0006 d2bd
000002e0: 10e2 ff3d 5b21 b8bc 1129 d9bd 2e82 e13b
000002f0: 5f3b a13e b230 b73d 82ab a8bb 83d3 633d
00000300: a088 fb3e cde4 fe3e d01b 8bbd ddc4 fb3c
00000310: db53 1bbd c7e2 0cbe eeaa 86be 0b4b bdbe
00000320: 57f5 55be 1c08 b5bd 510c 133e f0b2 4cbe
00000330: 965b b3be de8c 02be 5a0d e03d 1c4b f4bc
00000340: 3d87 22bf fe62 c53e 3047 b23c d95d 98be
00000350: b779 f73d 049b 50be 0ad9 cc3e 26f0 f13d
00000360: ec89 92bd adad 763d aef0 e83d c992 e13b
00000370: 310d 20be cb4a a53d dbd3 85b8 4b93 50bf
00000380: 92c6 09bd 0556 3cbe 1c93 233d 7018 a3ba
00000390: 224c adbe d53b 413d be0d 18bd fc2a 53bf
000003a0: db9a 68be 0fac de3d 3df6 853e 98d3 9ebd
000003b0: a8da 6f3f de02 04bf a46e a53e 3bbe c83d
000003c0: 6d06 05bf 1b9e aabe 4298 f0bd 1aac 4abd
000003d0: 089c 1c3e cf49 11be d7ab 893d 18ba 3c3e
000003e0: b3f3 a63c f65e 2c3d ad77 063c cab7 14bd
000003f0: 41fb 47be d1cb 883d 8634 0d3b 8b22 433e
-0.13722847 0.15420394 0.08276178 -0.11530576 0.06660238 -0.32409278 0.17161018 -0.12324441
-0.07988574 -0.1578543 -0.06191735 -0.06708679 0.3655164 -0.1093143 0.114451595 0.038768608
-0.29745045 0.08710224 -0.08338159 -0.046687752 0.0850426 0.26900047 0.08107896 0.018385196
0.058434602 -0.1287231 -0.12636596 0.004669935 0.02061591 0.018147813 -0.11277716 -0.38815022
0.020298036 -0.88405615 -0.10767152 0.475028 -0.13869826 -0.07386794 0.015088577 -0.30923712
0.0076706274 0.008623983 0.1073717 0.012365825 0.8651237 -0.30332673 -0.18883856 0.10468801
0.65648675 1.1625686 0.057525538 0.23384488 -0.03245875 -0.047634456 -0.06827476 -0.5832548
-0.46288726 -0.13492541 0.11191652 0.0671043 0.20912044 -0.11093562 0.086519554 -0.15902305
-1.1972625 -0.12074339 -0.05958437 -0.29564595 -0.04519285 0.14863908 -0.054146428 0.1003996
-0.05168347 0.040751446 0.18947828 0.03636759 -0.1518318 0.09731661 -0.05273434 -1.4908485
-0.006720431 0.6516894 -0.017807288 -0.12734455 0.21458986 0.18973069 -0.061836287 -1.1463966
-0.19679923 0.13548365 0.27437806 -0.09675591 1.2488816 -0.6171457 -0.042555086 0.16029948
0.33353254 0.11872912 0.0051530963 0.021494478 -0.05579583 0.07165812 0.17597114 -0.15553352
-0.16286 -0.03450404 -0.024122393 -0.009182686 -0.030089095 -0.018507034 0.066620365 -0.023308577
-0.28814626 -0.051596962 -0.039857745 -0.35172135 0.09743769 -0.25727066 -0.13468483 0.1351223
0.01761213 0.039418925 -0.005017328 0.025924435 0.004457701 0.018842056 0.034357462 -0.30319217
0.04109638 0.5709144 0.2740775 0.040745538 -0.05362023 0.1357169 -0.029480536 -0.14424184
-0.08584774 0.029620813 0.14946698 -0.12801784 0.30768856 -0.3789366 0.009622358 -0.06712802
-0.005726419 0.15379766 -0.08859311 0.018558012 0.042482704 -0.03366125 -0.35262072 0.03553424
-0.007923985 0.07095914 -0.07992935 0.10020379 0.027092481 -0.101437144 -0.09095715 -0.03552477
-0.12372867 -0.23468958 -0.04208918 0.046945542 -0.011319013 0.18823522 0.29111883 -0.043279737
0.21128325 0.004811964 -0.0364888 -0.12189598 0.04781271 -0.013177329 -0.013420044 -0.13860449
0.027877783 -0.04849663 0.1536479 0.36205164 0.046033982 -0.031665497 0.0058182734 -0.10255051
0.1249429 -0.022476843 -0.10603536 0.0068819737 0.3149061 0.08944835 -0.0051473984 0.055621635
0.49127674 0.49783936 -0.06792414 0.03073352 -0.037921768 -0.13758384 -0.26302284 -0.36971316
-0.20894371 -0.08839437 0.14360167 -0.19990134 -0.35030812 -0.12749049 0.109400466 -0.029820971
-0.6348761 0.38552088 0.02176246 -0.297591 0.12083762 -0.20371634 0.40009338 0.11813383
-0.07155213 0.060224224 0.11374031 0.006883953 -0.15630032 0.08070906 -6.381395e-05 -0.8147475
-0.033636637 -0.18392189 0.039935216 -0.0012443196 -0.33847147 0.0471762 -0.03712248 -0.82487464
-0.22715323 0.10872661 0.26164427 -0.07755202 0.9369302 -0.51566875 0.32310975 0.098019086
-0.5196293 -0.3332375 -0.11747791 -0.049480535 0.15293896 -0.14188312 0.06722229 0.18430364
0.020379877 0.04208275 0.008207244 -0.036308087 -0.1952944 0.066795 0.00215462 0.19056146

shrink.bias f4 [12]
00000000: 59d3 76be deda 9d3b 39ef 10bf 1a39 53bd
00000010: 36c9 213e 84f5 c43e f93e 47be 58e9 9d3e
00000020: 5f39 0d3f 4e43 6f3b 67b2 f73d 5bab 4bbe
-0.2410406 0.004817351 -0.56615025 -0.05156813 0.15799412 0.38468564 -0.19457616 0.3084209
0.55165666 0.0036508623 0.120945744 -0.19889586

lm1.weight f4 [12, 12, 3, 3]
00000000: 7771 aabd cf85 473e ab91 08bb 3a61 303e
00000010: 1899 81be ceb0 94bd 43bc b13d 1b50 5cbd
00000020: cc6c f23d f4e0 943c 57f5 c63d acb7 f9bd
00000030: 98ae 013e 7b1a a7be 093a cb3d 0151 18bd
00000040: 12f1 053e c90a 89bd e265 8ebd fc3f e03d
00000050: bef4 9f3d d16d 8c3d 1d8a 243e 984f 5fbe
00000060: b482 5bbd 6555 363d 9276 90bc ff35 093d
00000070: 5097 56be c487 4f3e 1d99 b9bb 0cb4 6f3f
00000080: 2b43 f3be 8ec4 e0bc d39f e7be a953 0d3e
00000090: 4ef7 72be f3c0 413e 938e 56be 0955 023e
000000a0: 83a5 5abf 4f7a ff3d 7481 2cb9 e4af 26bc
000000b0: efec 003d b773 73bd d52b 3cbe d2af ec3d
000000c0: a2e6 a9bd 8ebe 87bc fe45 68be 1072 1f3d
000000d0: 56de b63d 4e22 be3c aec4 a5bb 7f9e d2bd
000000e0: 7c61 f43d 082e 43be b9b6 4f3e 7d4d c6be
000000f0: 611e de3d 17d1 b1bd 75f1 313e d77e 583d
00000100: 3933 f7bc 9edc cc3d eaf8 39bc 066d 723e
00000110: 08ef 07bf f3a6 36be 4cf1 433e 16d7 003e
00000120: ca6c a2bd 89ce 3bbe 9086 27bc 9fc8 8dbe
00000130: d92c 3fbd 3354 063f 9e28 813e 1e12 a53d
00000140: d930 10bc 8d3b 8e3d 98e8 e3be 7e44 173d
00000150: 4c08 8bbe 8b81 0abe ebc8 3f3b 7357 bd3c
00000160: eabf 9abd c137 27be 9073 97be 3353 27bf
00000170: 41a7 77be 7732 ba3e b6ce c23e 5b7a 2d3e
00000180: 0042 963d fa22 73be 3df5 28bd f38b 403e
00000190: 169e c9bd 6cff f0bd c421 903b 9f96 40bf
000001a0: 960c 1d3e dec9 36bd ce14 be3d 28e8 ddbd
000001b0: f88d cd3d 72a6 833e 7a5b 06be 170d 843e
000001c0: 563d 35bf 4296 ba3e 05e8 71bc a5e8 bf3d
000001d0: 0cbd 90bd 90c8 26be f2f1 a73e ea1b d63d
000001e0: c32e d1bd cfed a0be 47aa f43d e667 6abe
000001f0: 0e03 9f3e f1c9 5ebd ec36 033e 4356 2c3e
00000200: 37d4 f43d d5f9 503e fcab dbbe 9c86 c4bd
00000210: f357 d03c 68f5 26bd a269 a23c df0e f93d
00000220: 5618 7d3e a6a8 f73d 2321 fdbd a4ab 8dbf
00000230: d711 ef3d a066 823b d1b7 023e 3f02 5ebd
00000240: 8006 ad3d 8d32 9abe f6df 043d cd34 7f3e
00000250: 11e3 06bf 5469 22bc f4c9 90bd a983 4bbd
00000260: 674a 19be ad9d 133e 9b1b 30be 2844 123e
00000270: b560 023e 8bd4 c5be 0663 29be 3f7e 92be
00000280: bad3 973c 2819 853d dca1 013e 1b1d 66bd
00000290: bc96 853d e465 05be 67b2 cdbe c7ea 8cbd
000002a0: 3105 2a3e 464d 0d3e f217 c53d a585 2d3c
000002b0: ac88 a4bd 5681 19bd 982e 193e ae18 513f
000002c0: 9f5c 8dbe d77b bcbb 8fd4 cabe 28a7 393e
000002d0: 039e 96bc 00ad e2bd b36f 7bbd 8a0e c03e
000002e0: 3963 a0bd d3ec ce3e 9b4b 25be 0a46 ab3d
000002f0: f9d8 87be acb8 88bd d392 8cbe 0bbb 093c
00000300: a181 a9be 7c43 093f 6e20 7ebe 789c 22bd
00000310: 6a9f 28be c615 903e 5ecb a43d 05c1 babe
00000320: 1c98 42bc e95c e23e 51d7 c13e 9656 3e3e
00000330: a277 203e 6f45 193e 9ff7 883c d252 53be
00000340: 327d 87be ca16 17bc 014b b33e f7b1 203d
00000350: 8178 f6bd 54fe 10bb d753 01be 49a2 263e
00000360: 67e2 063e c9c4 c83d 45f4 b4bd dc95 893e
00000370: e9b2 d8be c3ab 92bc 2917 2abe de88 043e
00000380: 0384 ce3d 35a8 10bd ebeb 473e d694 58bd
00000390: 4f2c 0bbe bcb0 0e3f 6fb2 1abe 1d65 ef3d
000003a0: db07 06be 2f5a 0abe 54a2 703e 9095 c63d
000003b0: 4e6a a73d 8d19 88bd d3ab abbe a1f9 1bbd
000003c0: 9caf 493d f84e 44bd c949 38bd b0ee 853d
000003d0: c659 043d f185 7c3e 8a4c 643c e423 793e
000003e0: 3736 42be 273e c63c b61c 18bd a28a 2dbe
000003f0: 2c5b 70be 6ecb efbc d10e ba3d 4440 a03d
-0.08322423 0.19484638 -0.0020838778 0.17224589 -0.25312114 -0.07260285 0.08678486 -0.053787332
0.118371576 0.018173672 0.097147636 -0.12193236 0.12664258 -0.3263739 0.09923179 -0.037186626
0.13080242 -0.0669151 -0.06953026 0.10949704 0.07810353 0.06856883 0.16068311 -0.21807706
-0.053591445 0.044515032 -0.017634664 0.03349876 -0.20956159 0.20266634 -0.0056640045 0.93634105
-0.47512183 -0.027437475 -0.45239124 0.13801445 -0.23727152 0.1892126 -0.20952825 0.12727751
-0.854088 0.124745004 -0.00016451423 -0.0101737715 0.031475957 -0.059436526 -0.18376096 0.115569726
-0.08295943 -0.016570356 -0.2268295 0.038927138 0.08929126 0.023209717 -0.0050588464 -0.10284137
0.11932656 -0.19060528 0.20284547 -0.38730994 0.10845638 -0.08682459 0.17377265 0.05285534
-0.030175792 0.10003017 -0.01135085 0.23674402 -0.5309911 -0.17837124 0.19135016 0.12582049
-0.07930906 -0.18340506 -0.010224953 -0.27692124 -0.04667363 0.5247223 0.252263 0.08060096
-0.008800709 0.06944952 -0.44513392 0.036930554 -0.27154768 -0.13525979 0.0029264044 0.023112988
-0.07556136 -0.16329862 -0.29580355 -0.65361327 -0.24184896 0.36366627 0.38048333 0.16941206
0.07336807 -0.23743811 -0.041249502 0.18803386 -0.098446056 -0.11767468 0.0043985564 -0.7522983
0.15336832 -0.04462611 0.09281312 -0.10835296 0.10036844 0.25712925 -0.13120833 0.25791237
-0.70796716 0.36442763 -0.01476479 0.09370545 -0.07067308 -0.16287446 0.32801777 0.10454543
-0.10213997 -0.31431434 0.1194654 -0.22891197 0.31057018 -0.054391805 0.1281392 0.16829781
0.11954539 0.20407803 -0.4290465 -0.09595987 0.025432562 -0.04076138 0.01982576 0.121610396
0.24716315 0.12092714 -0.12359836 -1.1068006 0.116733246 0.003979519 0.12765433 -0.05420136
0.084485054 -0.30116692 0.03244015 0.24922486 -0.52690226 -0.0099128075 -0.070697695 -0.049686108
-0.14969788 0.14415617 -0.1719803 0.14283812 0.12732203 -0.3863872 -0.1654168 -0.28611943
0.018533576 0.06498939 0.126594 -0.0561801 0.06522891 -0.1302715 -0.40175173 -0.06880718
0.16603543 0.13799009 0.09623708 0.010590945 -0.080338806 -0.03747686 0.1495918 0.81678283
-0.27609727 -0.0057520675 -0.39615294 0.18130171 -0.018385893 -0.110681534 -0.06138582 0.37511092
-0.07831425 0.40415058 -0.16142122 0.08362968 -0.26532724 -0.06675848 -0.27455768 0.008406411
-0.33106712 0.536186 -0.24817058 -0.0397 -0.16467062 0.28141612 0.08046602 -0.36475387
-0.011877086 0.4421151 0.37859586 0.18587717 0.15670636 0.14967893 0.016719637 -0.20637062
-0.26462704 -0.009221742 0.3501816 0.03923222 -0.12034703 -0.0022124248 -0.12629639 0.16272844
0.13172303 0.09803159 -0.08835653 0.26872146 -0.42323998 -0.017904168 -0.16610397 0.12942836
0.10083773 -0.035316665 0.1952359 -0.052876316 -0.13591121 0.55738425 -0.1510713 0.11689208
-0.13088934 -0.13510965 0.23499423 0.096964955 0.08174573 -0.066454984 -0.3352953 -0.03807986
0.04923974 -0.047926873 -0.044992242 0.06539667 0.032312177 0.2466047 0.013934264 0.24330097
-0.18965994 0.024199558 -0.037136756 -0.16947415 -0.2347228 -0.029271808 0.09084857 0.07824758

lm1.bias f4 [12]
00000000: a525 01be a67b 93bd 15c7 a53c 3a1a f8bd
00000010: 6b84 0cbe 7ebb 0d3e 6329 2a3c dd2c afbd
00000020: 1c11 53bd 03d7 1abd d4b3 573e 5391 acbc
-0.12612016 -0.072013184 0.020236531 -0.12114377 -0.13722388 0.13841054 0.010385844 -0.08553479
-0.05152999 -0.037802707 0.21064693 -0.02106539

lm2.weight f4 [12, 12, 3, 3]
00000000: 54ff 153d 20e1 033e 6d4b 86bd 9cd7 05be
00000010: 00ad 013f 19e9 11be 8441 a93d 4a44 59bf
00000020: 62a6 4e3e c2fe c83b b218 5d3d 62ed 7dbe
00000030: 7ca0 43be 7e81 1f3f 4dd3 09bc fe7e ce3c
00000040: 6343 3abd 1741 043f 98fd 6a3e 50c7 cfbd
00000050: 5bd3 1ebe fa58 113e ee8f 193e 35b2 27be
00000060: 1e26 163e 2b2d 02bb cabb 45bd c4af c23d
00000070: b981 183f 33fd 963c 9e2b 83be bb9d 0ebf
00000080: d845 0e3d 7d33 423e 5f33 2dbe 8338 8e3e
00000090: 1c5a c6be 3582 143f 13a2 9fbc 084b 8e3d
000000a0: 94de 87bf 82a2 4b3e 93a7 0bbe 3d97 953e
000000b0: 687d 8bbd 13fe e1be 0d86 f6bd 0d2f 2e3e
000000c0: cfa1 103d d119 053f aa19 c53d 5ee4 12be
000000d0: 1d4d 003e dea1 3a3d 5f5e 1abe 1a48 5abe
000000e0: 4f3c 60be a9e4 2c3e b675 cabc 58ea 19be
000000f0: 586b 69bd 8d0a debe 0b28 a3bc c003 9bbc
00000100: e4a5 ad3e 1989 0bbd 7c69 8b3c a843 5a3e
00000110: a6ff 51be 7f89 32be eb5e 84be 392b 083e
00000120: 93eb 383d 19d0 99bd e4b8 1dbe 17fd 44bd
00000130: a15f c03e c540 063e e82c bbbd 15b0 de3d
00000140: 51e0 1a3e 7a59 f237 6217 573d 91db a7be
00000150: 20d0 75be eda0 8c3e e13f 233e 2b98 b13e
00000160: 6cfe 9bbe ea5a b63d 9313 013e 7eb3 8f3e
00000170: db36 34be f299 1abe 8828 41be f3f4 463c
00000180: 3a6b 9f3d 56b8 19bd 9d75 c13d 27d9 cd3d
00000190: e760 9d3b 33d0 213e 692c 1ebe 9eab 7a3e
000001a0: 6b3c 8ebe 93a1 8abc 395d 893d 8beb 3dbd
000001b0: 317e 143d 197c 97be 66e9 da3d ae71 f73d
000001c0: e7cb 1a3c 7ea1 10be 90c6 553c 0df2 253e
000001d0: 04ec 3bbd 790b 423e abad 54be 818d 76bd
000001e0: 0694 6bbe 5442 8e3e 792b 5cbe 3636 81bd
000001f0: 5667 4dbd 144a bf3e d809 d5bd 2875 35bd
00000200: 8437 923d d570 05bd ba8b c63e b897 4b3c
00000210: cb51 a93d 9f14 9cbd b136 513d 7709 923d
00000220: 4c08 b1bd efa8 553d cc8c 5cbc 7789 71be
00000230: 130c 2fbe 913b fa3d 7927 b13e 7559 4f3d
00000240: c527 c43c 1d6b 913c 333c 363c 8621 97bd
00000250: a3fc c63d 9944 0fbe 9f80 3dbe 33a7 583e
00000260: 8d7d 4bbd 0dd4 f4bd 6f3a 7fbd 2b47 66be
00000270: bbaf 58bd 942f d43e 862b 473e 5b1b fa3d
00000280: d062 84be 205b 3cbd f60d 8ebd dfd9 233d
00000290: f7dd 11be 2c60 d6bb 562c 973e de7b 7f3d
000002a0: 7a78 0abe 1c86 f23d 12a5 0fbe fe36 c73d
000002b0: 9f9d bcbc 7e01 9b3d 3997 b9bc a529 773e
000002c0: 7719 d2be 055d 82bd d697 63be b3df 303e
000002d0: ad85 65be 902d 97bd 430c 893d d3f0 ebbd
000002e0: 23e2 9b3e cd7b d4bd 038d 5ebe 769d 113e
000002f0: 6cdd f23d 103d a3bc 30bd e6be 7339 b4bd
00000300: 2440 8ebe 9d4b 0b3f 90a5 0f3e d35b 6b3e
00000310: b232 703d 048a 3fbe fdbb a0bd 9ca2 313e
00000320: 4ea0 14be bd77 b33e 8f51 273f 88aa b53d
00000330: e6e5 d1bc 8758 6c3e 3b67 c6bd 9d31 9e3e
00000340: 94a6 a0bd 8f09 debd 82ff 95be fe5b 733a
00000350: 00d6 65be 55f5 133e 2b86 e53d ab44 253e
00000360: a865 333c 60f2 55bd b01a 19be d30f 193e
00000370: ec39 21be 8bc4 963e 836b 3fbe 1332 063f
00000380: fc47 b83d 0f59 1e3d 7dee b0bc 0001 8c3e
00000390: 128a 223e 212a 11bf 7f5d 35bc 98d0 e53d
000003a0: d6bb 20be 4c21 973e 0b9d 2cba 440d 02be
000003b0: eb19 27be ee8a 35bd e118 0a3f 0e63 fa3e
000003c0: ecfb e9bd 8193 993d 2b5f ef3d 6f40 21bd
000003d0: 3550 8f3e 4bac 24be 8816 51be 5413 17bd
000003e0: a51f 613e 9c31 42bb 55ff 9c3c d3ba d5bb
000003f0: 2b56 84bd 9416 113e 6b72 a63d 46d7 f23d
0.036620453 0.12878847 -0.06557355 -0.1307053 0.506546 -0.14249076 0.08264449 -0.84869826
0.20180658 0.006133885 0.05397863 -0.24797586 -0.19104189 0.62306964 -0.008412194 0.025207039
-0.04547442 0.5166182 0.22948301 -0.10145438 -0.15510313 0.14194098 0.14996311 -0.16376574
0.14662978 -0.0019863348 -0.048274793 0.09506181 0.5957294 0.018431282 -0.25619215 -0.5570943
0.034734577 0.18964954 -0.16914128 0.2777749 -0.38740623 0.5801118 -0.019486463 0.06947905
-1.06148 0.1988621 -0.13638143 0.29216948 -0.06811029 -0.44139156 -0.12037287 0.17010136
0.035310563 0.5199252 0.09624036 -0.14344928 0.12529416 0.045564525 -0.15075062 -0.21316567
-0.21898006 0.16884102 -0.024714332 -0.15030801 -0.056987137 -0.43367425 -0.019916555 -0.018922687
0.33915627 -0.034066293 0.017018072 0.21314871 -0.20507678 -0.17435263 -0.25853667 0.13297738
0.045146536 -0.075103946 -0.15402561 -0.048092928 0.3757296 0.13110645 -0.091394246 0.10873429
0.15124632 2.8890314e-05 0.052512534 -0.32784703 -0.24005175 0.27466527 0.15942337 0.34686407
-0.30467546 0.08904059 0.12605123 0.2806663 -0.1759905 -0.15097788 -0.18863118 0.012143361
0.07784124 -0.037529312 0.09446261 0.10051184 0.0048028114 0.15802078 -0.15446629 0.2447953
-0.2778047 -0.016922748 0.06707234 -0.04636721 0.036253158 -0.29586866 0.106890485 0.120822296
0.009448028 -0.14124104 0.013047829 0.16205616 -0.04587938 0.18949689 -0.20769374 -0.060193542
-0.23005685 0.2778498 -0.21500959 -0.06309168 -0.050147377 0.37361205 -0.10402268 -0.044301182
0.07139495 -0.032578308 0.38778478 0.012426309 0.08267554 -0.07621121 0.05107755 0.071307115
-0.08644161 0.05216306 -0.013461303 -0.23587595 -0.1709445 0.12218393 0.34600428 0.050622422
0.023944745 0.01775127 0.011122751 -0.07379441 0.097161554 -0.13991012 -0.18506096 0.21157531
-0.04968028 -0.11954508 -0.062311586 -0.22488086 -0.052901965 0.4144255 0.19450197 0.12212249
-0.25856638 -0.04598534 -0.069362566 0.0400027 -0.14244829 -0.0065422263 0.29526013 0.06237399
-0.1352252 0.118419856 -0.14027813 0.09727286 -0.023024378 0.07568644 -0.022655116 0.2413698
-0.41035053 -0.06365398 -0.2222589 0.17272834 -0.22414275 -0.07381737 0.06691792 -0.11520543
0.30445966 -0.103751756 -0.21733479 0.14220223 0.11858639 -0.019926578 -0.45066214 -0.0880002
-0.2778331 0.5441225 0.14028001 0.22984247 0.058642097 -0.18704993 -0.07848356 0.17347187
-0.14514276 0.3505229 0.65358824 0.08870417 -0.02562232 0.23080646 -0.096876584 0.30897227
-0.07844272 -0.10841667 -0.292965 0.0009283422 -0.22444916 0.14449055 0.11207231 0.16139476
0.01094953 -0.0522331 -0.14951587 0.14947443 -0.15744752 0.29446825 -0.18693356 0.5242016
0.08998105 0.03865915 -0.021598095 0.27344513 0.15872982 -0.5670491 -0.0110696545 0.11221427
-0.15696654 0.2951759 -0.00065846805 -0.12700373 -0.1631848 -0.044321947 0.5394421 0.48903698
-0.114250034 0.07498837 0.11688074 -0.03936809 0.2799088 -0.1608135 -0.20418751 -0.036883667
0.21984728 -0.002963162 0.01916472 -0.0065225153 -0.06461748 0.14168769 0.08127292 0.118574664

lm2.bias f4 [12]
00000000: 2796 b9bd 53f6 c6bb a8e2 f33d 9925 a0bc
00000010: 12dc 2b3c 3eb8 f1bd c23b 1d3e 2764 bb3d
00000020: 9af7 11be 48c2 1d3e 4f13 1ebe 0dcf 893e
-0.090618424 -0.0060718446 0.119084656 -0.019549178 0.010489481 -0.118027195 0.15354827 0.09149962
-0.14254609 0.15406144 -0.15437053 0.2691578

lm3.weight f4 [12, 12, 3, 3]
00000000: 781d 5f3d 6f91 36bb 3c03 62be a863 bcbd
00000010: 6743 7abe 9840 b73c 6ac4 a5bd b2cd 623e
00000020: 755f c8bd dd25 fbbd 59a0 ef3d f02a 8abe
00000030: e29d 1b3c 3498 a9bd f73e 9ebd 40f9 c03d
00000040: f84a b93b 1868 103e f563 8fbc 8979 8f3e
00000050: 6c6f 6cbe 8eda 58bd 02af 62be 750d 563e
00000060: 1d45 51be ec82 91bd 205d 00bc 721b 2d3d
00000070: e24e a23e 4c24 003d 1882 57bd 87eb 933c
00000080: 4861 e03d ea08 e5bd 7864 c03d 58fc 82be
00000090: 59aa abbe a155 253e a775 35be aeac 77bc
000000a0: e025 14bf b3e0 92be a129 063e 1428 4a3e
000000b0: 1976 8a3e 0368 ce3d 2328 0a3e 0196 fe3d
000000c0: a0e8 113e d863 04bf e8e1 f13d 021e 3abe
000000d0: 142d ff3e 3c56 333e 919f f53d 29d6 a8bd
000000e0: f889 383d f3a4 ac3d c500 d3be acb2 b43d
000000f0: 0039 263e ad85 d9bd a907 b0bd b2f0 e53e
00000100: ffb2 783e 4c9f 973d e686 84be 208d 3f3f
00000110: 08ee eab9 dfc5 86bd d2a8 163d db73 673d
00000120: cbe8 0b3e 772c c83c 0873 1ebe 3f80 213e
00000130: 4d90 00bf 9331 933e d88a 353e 5eb6 273e
00000140: a72c a73e 9d90 90be cd5a 0b3d 9c28 06be
00000150: 351f adbe a180 e13e 135d 51be 88a3 833d
00000160: 456b 86be befd 49bc 6e4b 043e 7a10 d5bd
00000170: f71d 22be 7430 ad3d fa2c 463d 1e43 72bf
00000180: c0d5 303e 70c0 da3e e602 8e3e ec74 46be
00000190: 8cc7 a6be fb98 91be c745 65be b4c8 723c
000001a0: 41f0 0e3e 7701 773c 0b82 88be 2c68 3dbd
000001b0: 19ad 84bd f18b a9bd 5812 a3be 5d07 95be
000001c0: 2fff 403d ce3d 8ebe 8ec5 fd3c b5d9 453e
000001d0: 2362 d93d 1498 c3bd 87d7 37bd 0dce 453c
000001e0: 6109 8ab9 4837 2abe e599 91bc 52d3 2a3d
000001f0: 2a20 a7bd bda0 67bd 7688 27be ed39 6abe
00000200: d58a 913d 7d56 4d3e 5909 793f c051 8a3e
00000210: 955d 053e 5014 753e 9865 6ebe 846d 7fbc
00000220: 8661 83bd fc97 33be 23fe b13d f827 69be
00000230: 921a 563e fbb2 983c 9ed5 193d 51f4 cebd
00000240: f112 a03e 104b 65bd 69fa ac3e f2be 513d
00000250: 7024 cd3e 5cf1 abbe b23d 53bb 00d3 cabd
00000260: e11d 54be f808 283c 6fee ad3e 6ff6 853c
00000270: 2294 cebe 8345 a0bd 6ff3 3bbd 18a2 b6bd
00000280: 4b77 39be 7d5c 713e 8f14 a63d fc3e 4b3c
00000290: 5bcb 973d 49c2 3fbe 8561 513f 3e0a eabe
000002a0: 4fb7 46bd dc04 d2be 41c2 d2bc 5706 cbbd
000002b0: 6564 42be ab67 a2bd 690d 423d 9369 63bd
000002c0: 2f3d 1fbe 9c9c 923d 97d8 69bd 6065 423d
000002d0: 4e01 c03d ce14 dcbe 3471 863c 8e7e 84bc
000002e0: 38c2 6c3f 501a 633e b051 253e a78d 12bc
000002f0: f34a 2b3c 7e95 383d 0f0e 83be 0971 bfbe
00000300: 38e2 e83e 9d38 543e a6d3 09bd 8e97 75be
00000310: beb9 54bc f86e 9abd 3797 bc3c 9400 983d
00000320: 7813 8a3e 1a3d 0cbe b88a e3bd 8d76 d4be
00000330: 9695 0fbe b68e db3e 5f0f febd 5bf3 57bd
00000340: cef4 3f3e 14ef e03c da41 b13e f506 833e
00000350: 6c1d 34be 35a0 38bd 9bc8 083b ff05 013d
00000360: a0a7 013e 5737 863e 0b8d cb3c 49ca 913d
00000370: d1de 323e 0a9c 1b3d 431d 83bd e480 4e3e
00000380: 008c d93d 5089 13be 651f 803e 05c2 5e3b
00000390: 0101 77bc 4530 c93d e840 6ebd 323f aa3d
000003a0: fa8f 01be 27aa a13c ebde 9c3d 24f1 a8be
000003b0: 2f1d 97bd ef4d debc 494f f73e 56b6 133e
000003c0: d256 3ebe 334c 483e b199 edbd c679 08be
000003d0: 6b6b 28bc c399 c6bd 87b1 4abe f201 3a3e
000003e0: 329f 87bb 89d6 ad3c d823 e4bd ab38 3ebd
000003f0: 1d3c b93d b8be 95bc 3c4c 8b3e 75a7 81be
0.054471463 -0.0027857681 -0.22071546 -0.091986954 -0.24439774 0.022369668 -0.08094104 0.22148779
-0.09783832 -0.12263081 0.11700506 -0.26985884 0.009498091 -0.082809836 -0.07726853 0.09422541
0.005654689 0.14102209 -0.017503718 0.2802241 -0.23089379 -0.052942805 -0.22137073 0.20903571
-0.20436521 -0.071050495 -0.007834703 0.042262502 0.31700808 0.031284615 -0.0526143 0.018056644
0.10956055 -0.11183341 0.09394163 -0.25583148 -0.33528402 0.16145946 -0.17720662 -0.015116854
-0.5787029 -0.28687057 0.13101818 0.19741851 0.27043226 0.100784324 0.13491873 0.12430955
0.14248896 -0.5171485 0.11810666 -0.1817551 0.4983908 0.17513365 0.119933255 -0.08243973
0.045053452 0.08429899 -0.41211525 0.088231415 0.16232681 -0.106212 -0.08595211 0.44910198
0.24287032 0.0740343 -0.2588417 0.74824715 -0.00044809305 -0.0658071 0.036782093 0.056506973
0.13663022 0.024435265 -0.15473568 0.15771578 -0.50220186 0.2874876 0.17728746 0.16378161
0.32651255 -0.2823533 0.03402214 -0.13101429 -0.33812872 0.4404345 -0.20445661 0.064276755
-0.26253715 -0.012328563 0.12919399 -0.10403533 -0.15831743 0.08456507 0.048382737 -0.9463366
0.17269039 0.42724943 0.27736586 -0.1938054 -0.32574117 -0.28437027 -0.22389899 0.014818359
0.13958837 0.015076033 -0.26661715 -0.046241924 -0.06478328 -0.08278645 -0.31849933 -0.2910718
0.047118362 -0.27781528 0.03097799 0.1932133 0.10614421 -0.09550491 -0.044883277 0.012073052
-0.000263284 -0.1662265 -0.017773578 0.041705437 -0.08160432 -0.056549776 -0.1636065 -0.2287366
0.07106558 0.20052524 0.9727989 0.27015495 0.1302398 0.2393353 -0.23280942 -0.015590075
-0.064150855 -0.17538446 0.08691051 -0.22769153 0.20908573 0.018640032 0.037557237 -0.101051934
0.3126445 -0.05597979 0.33784798 0.05120749 0.40066862 -0.3358258 -0.0032232818 -0.09903526
-0.20714523 0.010256045 0.33970973 0.01635286 -0.4034739 -0.07825758 -0.045886453 -0.08917636
-0.18111913 0.23570438 0.0810939 0.012405153 0.07411834 -0.18726458 0.8178943 -0.4571094
-0.04851466 -0.41019332 -0.025727393 -0.099133186 -0.1898361 -0.07929929 0.04737607 -0.055520605
-0.15550683 0.07158777 -0.05709132 0.04745996 0.09375249 -0.42984623 0.016411401 -0.016173627
0.92483854 0.22178006 0.16144443 -0.008944905 0.010454881 0.04506444 -0.25596663 -0.37390926
0.4548509 0.20724721 -0.03364911 -0.23983595 -0.0129837375 -0.07540697 0.023021324 0.07421985
0.26967978 -0.13695183 -0.11110443 -0.41496697 -0.14021906 0.42882317 -0.124052756 -0.052722316
0.1874573 0.027457751 0.34620553 0.25591245 -0.17589349 -0.04507466 0.0020871523 0.03149986
0.126616 0.26214096 0.024847528 0.07118661 0.1746781 0.037990607 -0.064020656 0.20166355
0.10622406 -0.1440785 0.25023952 0.0033990156 -0.015075923 0.0982366 -0.05816737 0.08312835
-0.12652579 0.019734455 0.07659706 -0.32996476 -0.07378613 -0.027136771 0.48302677 0.14425024
-0.18587807 0.19560318 -0.1160158 -0.13327703 -0.010279517 -0.096972965 -0.19794284 0.18164805
-0.0041388506 0.021220462 -0.11139649 -0.04644076 0.09044669 -0.018279418 0.272066 -0.25323072

lm3.bias f4 [12]
00000000: 5871 aa3e abc5 703f 76fe c8be 32c8 83bd
00000010: 8bdf 9a3d 5022 9e3e a30e cc3e adc4 0a3e
00000020: c3bd ac3d d90c 94bd 2e86 b8be ca05 79bc
0.332896 0.9405162 -0.39256638 -0.064346686 0.07562169 0.30885553 0.39854917 0.13551588
0.08434632 -0.07229013 -0.3603987 -0.015199134

lm4.weight f4 [12, 12, 3, 3]
00000000: 97e3 56be 8034 44be 2c5c 9c3c edc4 e5bd
00000010: a3a6 073e 5e38 81be f023 063d 909b b53d
00000020: fd1c 333c 7a3d 36bc bfff 29bc 6463 60bd
00000030: 69d4 953d 3678 57be 17bd b9be 112d c0bc
00000040: 672d 803e b6a3 673d d4e3 f0bd 32c3 553d
00000050: 1b65 853d 937d 2abe 7616 3e3e e0f9 f83d
00000060: df01 63be 4390 85be 48d7 56be 22af 5a3d
00000070: 8dc5 76bd d5ab 21bc a502 413d 300b 1dbe
00000080: 9c5b 6f3e bd85 15bd ccd0 b6be 092d 12bd
00000090: e386 99bc 599c 793e 2e12 9d3d f8cc e73d
000000a0: 43c4 5b3f 8f88 66be 4fd9 e0bc af15 153e
000000b0: db2d 27bd 4bba b3bc 15f1 053d e57d 183e
000000c0: 2787 81be 11bb e4bc 7c96 50be 6846 823d
000000d0: ef62 e53d 55d7 453d 6989 4bbc a61a f93e
000000e0: b3ca 0bbe abe9 b63e dc04 99be 1103 cfbd
000000f0: 2f24 7bbc c6dc 363e ef19 09bd dd80 293d
00000100: f92b 303c 134c 69bd 6ca9 0d3b a8d7 5f3e
00000110: ffa3 f8bd c7c2 77be 0ec0 ee3c 48aa 94bc
00000120: 5165 60bd 3895 9abd 3fdd 783d 0d8e 6ebd
00000130: 3506 47be 9cc4 713d 00f2 d6bc c7a0 5d3e
00000140: cbfc 943b c16e 72bd 542f b3bd 066b 6cbd
00000150: d623 d0bd 7ff5 023f b70d 14bd 7a89 2c3d
00000160: 148b 26be 9180 3bbd ab51 053b e235 973d
00000170: 995f 123e f23c 583e 61a6 03bf f3fb e73e
00000180: 50d5 453d 1749 e63d 9694 0ebe cddf c9bc
00000190: c05d a1bd 1be8 e4bd c6be f53c edbb 433f
000001a0: 1f77 f1bd de76 273c 0bf2 a2bb 4a9b 603d
000001b0: 78f4 0ebe 47d3 c7bb ded5 8dbb 824d 0f3e
000001c0: 0e49 533e 7c08 8fbe aad9 bebc 39bf 42be
000001d0: 55f0 393e f318 f6bd 5be8 ad3e ab65 efbd
000001e0: a753 14be 153a fdbe 4fac a4be 18b9 183d
000001f0: 763d e1be 962f a1bc 8c21 3cbd 1e54 8bbe
00000200: a37a 06bd 3661 0a3e f493 9abd 5483 6e3e
00000210: 71f7 6f3d 4156 5f3e 7f51 f63c 0b33 24bd
00000220: d5a0 0cbe c8ac b1bd 7447 37bd 49e8 5f3d
00000230: f41a 173e d2be ccbc 404e b03e 8dba edbd
00000240: f3ce d6bd 0fdb 9e3e 47b8 cebd bc98 1e3e
00000250: b588 dbbe b314 78be 13a1 b6bd 1426 7dbd
00000260: cc38 4d3e 3c88 0bbd ce11 f93d 7a38 093b
00000270: c412 0dbd debf 073e bf6b 473e 7f9e 283d
00000280: a395 48bb 1dce b13c 4e24 013e e08e 573d
00000290: 8e82 c73d 61fe ecbd 65f5 fdbc 6b35 b6be
000002a0: 42a6 cbbd c53e 04be 0088 6c3d d0e3 10bd
000002b0: 192f 66bd cbb7 00be 9bc0 a5bd f526 1d3e
000002c0: 051b 213e 8ed5 1e3d fb5d 5fbe b783 823d
000002d0: 25ef bcbd 5b9c 643b 96cb ec3c d5c6 79bd
000002e0: 4535 48be 90a4 973e c354 a13d d654 1abe
000002f0: 2a57 b13e 28c5 a2be a707 bb3e 3d4e dabd
00000300: 4cb1 983e 657a 863d 9665 4f3e 2a02 7ebc
00000310: 909b a43c 02ab 03be 9d7f 193e c549 d3bc
00000320: 3a63 923c dd72 5d3d acf7 65be 78fa 033f
00000330: 9fe3 83bc 4a79 89be a06c cfbd ddf6 d2bd
00000340: 2cdd 0ebe 928c b8bd 7c8f 173e d6b7 54bf
00000350: d247 263e 97f7 a53d 8718 1bbe 6b30 0abd
00000360: de2b b73d 00f8 a13c 1996 29be dd38 81bd
00000370: 0431 40be 7073 283d 4a2f 9abc 4600 59be
00000380: e073 393e ea22 3e3d 80f7 ff3d 8133 3a3d
00000390: 9e20 143e 746f 063f 4158 bbbe c978 ffbd
000003a0: 0838 dbbe c3e3 e1bd 5514 4e3d 81ce f6bb
000003b0: c8aa 273d 80e7 81bd 838c 48bd cb78 113e
000003c0: 9f1b f63e a306 023f c28a b13e ad31 26be
000003d0: 7dd6 16be c9b7 69bd c230 01bd df4c 103f
000003e0: 2b64 963e 290c 883d 5a33 173f 06cf 46bb
000003f0: d57b da3c e53f 20be 0f6a 4abc d707 a3bd
-0.20985256 -0.19160652 0.01908692 -0.11219201 0.1324716 -0.25238317 0.032749116 0.08867562
0.010932204 -0.011123056 -0.010375916 -0.054782286 0.07315905 -0.2104195 -0.36277077 -0.02345899
0.2503464 0.05655261 -0.11762205 0.052188106 0.06513425 -0.16649465 0.18563256 0.12157035
-0.22168683 -0.26086625 -0.20980561 0.053389676 -0.060246993 -0.009867628 0.047121663 -0.15336299
0.2337479 -0.036504496 -0.35706174 -0.03568748 -0.018741077 0.24376048 0.07669483 0.113183916
0.85846347 -0.2251303 -0.02744737 0.14559053 -0.040815216 -0.021939417 0.032700617 0.14891775
-0.25298426 -0.027921231 -0.20369905 0.06361085 0.11200511 0.04830106 -0.012422898 0.48653144
-0.13651542 0.3572515 -0.2988652 -0.10108007 -0.015328451 0.17857656 -0.033471998 0.04138266
0.010752671 -0.056957316 0.0021615876 0.2185961 -0.12140655 -0.24195395 0.029144313 -0.018147603
-0.054784123 -0.075479925 0.06075787 -0.05824094 -0.19435962 0.059025392 -0.026238441 0.21643363
0.004546737 -0.059187654 -0.087492615 -0.057719253 -0.10163085 0.5115585 -0.036145892 0.042123295
-0.16263992 -0.045776907 0.0020342867 0.07383324 0.1429428 0.21116999 -0.5142575 0.4530941
0.048299134 0.112444095 -0.13923869 -0.02464285 -0.078792095 -0.11177083 0.029998194 0.76458627
-0.11790299 0.010221211 -0.0049727014 0.054835595 -0.13960445 -0.0060981843 -0.0043284735 0.1399441
0.20633337 -0.2793616 -0.02329715 -0.19018258 0.18158086 -0.120164774 0.33966336 -0.116893135
-0.14485036 -0.49458376 -0.3216271 0.037285894 -0.43992203 -0.019676011 -0.04593043 -0.27212614
-0.0328318 0.13513646 -0.07547751 0.23292285 0.058585588 0.21810247 0.030068157 -0.04008774
-0.13733228 -0.086755335 -0.044745877 0.054664884 0.14756376 -0.024993334 0.344347 -0.11607847
-0.10488691 0.31026503 -0.10093742 0.15487951 -0.42877737 -0.24226646 -0.08917441 -0.061803892
0.20041198 -0.03406547 0.12161599 0.0020938204 -0.034441724 0.13256785 0.19474696 0.04116678
-0.0030606769 0.021704728 0.12611505 0.05262649 0.09741698 -0.115719564 -0.031000802 -0.3558763
-0.099438205 -0.1291457 0.057746887 -0.03537351 -0.05619726 -0.12570111 -0.08093377 0.15346892
0.15732963 0.03877788 -0.21813194 0.06372779 -0.09225301 0.0034883234 0.028905671 -0.060980637
-0.1955157 0.2961774 0.07877495 -0.15071425 0.34636813 -0.31791043 0.36529276 -0.10659454
0.29822767 0.06566314 0.20253596 -0.015503446 0.02009371 -0.12858203 0.14990087 -0.025792012
0.01786958 0.05406462 -0.2245776 0.5155406 -0.01609975 -0.2685035 -0.101281404 -0.10300992
-0.13951558 -0.09011187 0.14800829 -0.8309301 0.16238335 0.08103865 -0.15146075 -0.03373758
0.08943914 0.019771576 -0.16561164 -0.06309674 -0.18768698 0.041125715 -0.018821377 -0.2119151
0.18110609 0.046420015 0.12498379 0.045459274 0.14465567 0.52513814 -0.3659077 -0.1247421
-0.42816186 -0.1102977 0.05031236 -0.0075319414 0.040934354 -0.06342983 -0.048962127 0.14206235
0.48067948 0.50791377 0.34676176 -0.16229887 -0.14730258 -0.057060037 -0.03154064 0.56367296
0.29373297 0.06642944 0.5906273 -0.0030335798 0.026670376 -0.15649374 -0.012354388 -0.0796048

lm4.bias f4 [12]
00000000: 43bb c63d e4bc ce3e 7b9b 9c3e b4d8 873e
00000010: 649f b43e 9a59 ddbe 7b9f 25be 8985 343e
00000020: 05f1 943e c46c 953e 331c 393e 8710 f63e
0.09703686 0.40378487 0.30587372 0.2653252 0.35277855 -0.43232423 -0.16174118 0.17629065
0.29090133 0.29184544 0.18077163 0.48059484

expanding.weight f4 [48, 12, 1, 1]
00000000: c85e 743d 1fdf 45bd e3f3 593e db43 053f
00000010: 43c3 ffbe 877a cb3e e585 a53e 93be 04bf
00000020: c905 fc3b 6fc9 8fbe 2504 b3be 5813 243f
00000030: 4679 67bd 0ec1 b23a 21df 81be 55ea e13e
00000040: ebd4 e33d ca71 633e 61fa 6ebe 8f32 98be
00000050: 8d81 1c3f 034c 3bbe 818d 853e 9d5c 543e
00000060: 3fcc 80bc dfde bb3d 07a3 1f3f 927c 68bd
00000070: ad71 90be 8c85 dfbd 6f70 77bd 525c 33be
00000080: ef45 4d3e 13b5 263e 4662 5b3d f1ea 393d
00000090: 21dc 65bd 8388 25bd 9994 93bd e2fb e73c
000000a0: d258 65be bb60 393d cf33 2fbd a6c1 25be
000000b0: 736f 0c3e 08e6 ebbd c086 f6bd e480 753d
000000c0: 5bd5 d2bc 3520 0cbd ad36 0cbd 0c7f 4fbd
000000d0: d07c 893e 1cc8 81bb 1f42 563c 3058 173d
000000e0: ae87 d5bd 3fa5 573e 7222 c13c a154 9e3c
000000f0: f32b 613e aec8 8a3e 6507 cb3e de11 30bd
00000100: 9530 213e e356 e43e 9af6 b83d 1f72 76be
00000110: 5a63 643d a186 8fbe 790c 95be 95cf dabb
00000120: 31f2 6f3e 7ed8 983e 0e9e b23e 5ac4 57bd
00000130: 859d 0d3e 8b9c da3d ec90 08be 9397 aa3d
00000140: 0b5e 69bd 525d 85be 3b39 43be bc8e e63d
00000150: d66a 093d 420a e33c a5a0 dd3d fbae fbbd
00000160: e675 55bd b86e 633c 5bf4 1d3d 703f fc3d
00000170: 9ea1 3cbe 0cd6 183d 6591 6dbd 3491 19bc
00000180: 962b b3bd 7c27 3b3e 97bb 36be ea8e f53e
00000190: fd91 a8bd f095 963e 1e77 3dbd 01a4 00bd
000001a0: 0152 f13e 755c 50be ca96 793d d7a8 333e
000001b0: 93f7 b9bd 3806 6a3e 71e7 163f 4ba2 823c
000001c0: 0ea0 83be 0435 c6bd e9e8 31bd 47a6 60bd
000001d0: 93ec a5bc 471b 41bd 3651 fb3d 209b 323e
000001e0: 8fde 74bd 23cf d5bd a6bf 02be dcaf 8b3e
000001f0: 04c8 ae3d b125 b3bb fdd2 063e 2f3a 6abe
00000200: 0973 b13e cae6 2cbe bca8 e63e e50c 213e
00000210: 7676 913d f1a4 5d3e 75e0 efbd e160 bc3d
00000220: 3ccb 83be 11e3 fd3d ecb5 a83d 79ad 80be
00000230: d278 9b3d d5d2 1abe 9ebe a5bd 0c76 3f3e
00000240: 0ccd bd3d e275 0b3e 1c5b 093e e744 023e
00000250: c158 b7bc d453 623e 5bc6 94bd bf55 f1bd
00000260: 2fc8 a23e c9db 34bc 84d7 9bbe de46 eb3c
00000270: 1be3 b3be d7f9 243e 3514 f5bc b101 da3d
00000280: d7dc c8be b634 a63e 8fc0 0cbe 4131 eebc
00000290: 4757 013e 2e98 b2bd 5116 97bd 98cf 363e
000002a0: c8bf 9fbd 43e0 583e 9966 143f 95d9 283c
000002b0: 1a95 c4be f92d 79bd 3ad7 4d3d 36c3 8fbe
000002c0: 64eb d03d d291 773e 8045 003e 5e6f 123d
000002d0: e35b cc3e 20bb 8d3d 07cc 063e ba49 d53e
000002e0: 45e9 ccbe ed56 973e 9fe8 cb3e bd14 bfbe
000002f0: a9b3 ba3c 21be 06be 9d6a 1bbe 07ca 0b3f
00000300: c176 eb3b 8849 003d 4829 9d3d 69c9 683e
00000310: 6430 00bf 1f2d d73e 44f2 7c3e 8979 2e3e
00000320: cf67 a13e 8a86 a33d a7d0 b8be 67c9 d63e
00000330: 7273 473e e2ba f53e cadb b33e a596 993e
00000340: 732e 493d 14c6 603e 5414 533e f92f 1fbe
00000350: 852d b33e 2429 9fbe 07c8 19be b3bf 5b3e
00000360: 2008 19be c6c8 c33e 17ce a8bd 6454 cb3e
00000370: 75e8 96be b137 b73e e278 ad3e b046 47be
00000380: 027d 183c fd02 97be cd34 90bd eb9f 683e
00000390: 9a60 9bbd 2df9 4a3e b5b0 e5bd d225 d93e
000003a0: 84cc e9be b434 88be 4f47 0fbd 2cce 293e
000003b0: c0d1 2dbe de04 473e 98cf 453b 0d3a 813e
000003c0: f2fe 1b3e f8f2 a53d 8f4f 0fbe ac3d 523e
000003d0: f8b1 c2bd 132c 67be be28 de3d dbf4 5a3e
000003e0: 3cef f63d e2a5 a23d 26b3 d93d 2eeb 423e
000003f0: 8780 82bd 94e3 14bc a06b b83c a698 a03d
0.059660703 -0.048308488 0.21284442 0.52056664 -0.4995366 0.39741918 0.32328716 -0.51853293
0.0076911193 -0.2808337 -0.349641 0.64092016 -0.05651214 0.0013637857 -0.25365546 0.44124094
0.11124595 0.22211376 -0.233377 -0.29726073 0.6113518 -0.18290715 0.2608452 0.20738454
-0.015722392 0.09173369 0.62358135 -0.056759425 -0.28211728 -0.10914144 -0.06040996 -0.17515686
0.20046209 0.16280012 0.053560518 0.045390073 -0.056118134 -0.04041339 -0.07206077 0.02831835
-0.22397164 0.045258265 -0.042774018 -0.16187152 0.1371439 -0.11518484 -0.1203742 0.059937373
-0.025736501 -0.034210403 -0.03423183 -0.05065827 0.26853037 -0.0039606225 0.013077288 0.036949337
-0.104262695 0.2105913 0.023575995 0.019327464 0.21989422 0.2710623 0.3965408 -0.04298579
0.15741189 0.4459754 0.090314105 -0.24066971 0.05575881 -0.280324 -0.29111078 -0.0066775777
0.23432232 0.2985267 0.3488621 -0.05267749 0.1382962 0.106743895 -0.13336533 0.08329692
-0.056974452 -0.2604776 -0.190648 0.11257693 0.033549152 0.027714852 0.10821656 -0.12289234
-0.05211439 0.013881378 0.038563114 0.12316787 -0.18421027 0.037313506 -0.057999987 -0.009372998
-0.08748548 0.18276781 -0.17844997 0.47960597 -0.0823097 0.29411268 -0.046256177 -0.031406406
0.47132877 -0.2034777 0.06093482 0.17544876 -0.09080424 0.22853935 0.589469 0.015946528
-0.2570805 -0.09678081 -0.04343501 -0.054846074 -0.020254409 -0.047145154 0.12271349 0.17441988
-0.05978256 -0.10439899 -0.1276842 0.27282608 0.08534244 -0.0054671397 0.13166423 -0.22873758
0.34658077 -0.16884914 0.4505061 0.15727575 0.07102673 0.21644951 -0.11712734 0.09198166
-0.25740993 0.12396825 0.08237824 -0.2513235 0.07591404 -0.15119489 -0.08092998 0.18697375
0.09267625 0.13619187 0.13413662 0.12721597 -0.022381188 0.2210229 -0.07264396 -0.11783933
0.31793353 -0.011038729 -0.30437863 0.028720316 -0.35134205 0.16110931 -0.029916862 0.10644854
-0.39230987 0.3246209 -0.1374533 -0.02907622 0.1263095 -0.08720432 -0.073773034 0.17852628
-0.07800251 0.21179299 0.5796905 0.010305782 -0.38395005 -0.06083486 0.050254084 -0.28078622
0.10201147 0.2417672 0.12526512 0.03575074 0.39913854 0.06920457 0.13163768 0.4165781
-0.4002172 0.29558507 0.39825913 -0.3732051 0.022790747 -0.13158466 -0.15177388 0.54605144
0.0071857874 0.031320125 0.076738894 0.22733082 -0.5007384 0.42026612 0.24701792 0.1703855
0.31524512 0.07984646 -0.3609669 0.41950533 0.19477633 0.47994143 0.35128623 0.29997745
0.049116563 0.21950561 0.20613223 -0.15545644 0.34995666 -0.31086075 -0.1501771 0.21459846
-0.14944506 0.38239115 -0.082424335 0.39712822 -0.29474226 0.35784677 0.3388129 -0.19460559
0.009307148 -0.29494467 -0.07041321 0.22717254 -0.07586785 0.19821616 -0.11215345 0.42411667
-0.45663846 -0.2660271 -0.034980115 0.16582555 -0.16974545 0.1943545 0.003018355 0.25239602
0.15233973 0.08102983 -0.13995193 0.20531338 -0.09506601 -0.22575407 0.10847615 0.21382467
0.12057349 0.07941796 0.10629873 0.19035026 -0.06372171 -0.009087462 0.022512257 0.078416154

expanding.bias f4 [48]
00000000: c01b 1cbf d8e2 78be 2b4c e0bb 5fc4 c7be
00000010: 89f1 e43e fa13 ecbe cfa2 6dbe c7ca e33a
00000020: b6be 773e d140 5c3e 553e b7bd 5a7e 1ebf
00000030: a14f 13be de43 01bf e185 0a3e e195 d3be
00000040: 7532 58bf 4cd3 1b3e bb0f 00bf ca7e e33d
00000050: 69a1 4c3e a034 a1be 9a88 323c 4e6e 2b3e
00000060: 732b 54bd 354e a13e caed 8b3e dd68 783e
00000070: 9a92 d6be e0fe cabd acaa 6a3e 0ba7 59be
00000080: 1829 ca3e 6e51 40bf 1df4 32bf 6d17 2ebf
00000090: a63c edbd 7533 663e 6ac4 ffbe 3954 8dbf
000000a0: 9394 ecbd d577 3c3d 10b4 65bd 1580 943e
000000b0: ed38 fcbc 582a 773e b2de 703e 21e3 cabe
-0.60979843 -0.24305284 -0.0068450174 -0.39017007 0.44715527 -0.4610899 -0.23206638 0.0017379158
0.24193844 0.215091 -0.08947436 -0.6191155 -0.14385845 -0.5049418 0.13527633 -0.41325286
-0.8445199 0.15217322 -0.50024 0.111081675 0.19983448 -0.31485462 0.010896826 0.16741297
-0.05179925 0.3150498 0.27329856 0.24258752 -0.41908723 -0.09911895 0.22916669 -0.21255128
0.39484477 -0.7512425 -0.6990374 -0.68004495 -0.115838334 0.22480567 -0.4995454 -1.1041328
-0.11551776 0.04601272 -0.056079924 0.2900397 -0.030788863 0.24137247 0.23522452 -0.3962641
