model/succeed/exp1/model-3x.ckpt (torch_old, 270615 bytes, 48 tensors)

feature_extraction.weight f4 [48, 3, 5, 5]
000000 06 1d 33 bc ff 8a 19 3e 74 5d d3 bd da 7f 06 3f
       -0.010932213 0.14994429 -0.10320559 0.52538836
000010 5c 16 b4 3d ad 17 fe bd 03 11 69 bf 39 a4 66 bf
       0.08793327 -0.124068595 -0.9104158 -0.90094334
000020 7a c3 0e bc 78 4e 25 be e1 ad ed 3d 0b 1b 19 bf
       -0.008713597 -0.16143215 0.116054304 -0.5980689
000030 4e 24 40 bf a5 ef 9f be 6a fd 2b be ee 13 c3 be
       -0.75055397 -0.31237522 -0.16795889 -0.38101143
000040 86 bf 45 be b0 e1 65 3e ed ce 18 be 80 7e d3 bd
       -0.19311342 0.22449374 -0.14922686 -0.10326862
000050 92 f3 b1 bd 79 81 80 bc b2 e5 a2 be 43 48 1a 3f
       -0.086890355 -0.015686737 -0.3181587 0.6026651
000060 98 80 0f bf 48 76 a9 be 04 76 ce be 92 b3 4c bf
       -0.56055593 -0.33098054 -0.40324414 -0.799615
000070 c4 47 ca be 1c b1 8b bd 3d d6 7c be c4 5a 1f bf
       -0.39507878 -0.0682089 -0.246911 -0.6224787
000080 fc 2d d1 be a1 7d 74 bf d2 69 1f bf 87 a7 d1 3d
       -0.40855396 -0.95504194 -0.62270844 0.102370314
000090 5b c7 9e 3d 28 05 66 3f 4d 4d 77 3e 27 f4 ff 3e
       0.07752868 0.8985162 0.24150582 0.4999096
0000a0 11 a1 f2 be d6 84 2a 3e ca b1 63 3e 9f a3 6e bd
       -0.4738851 0.16652235 0.2223579 -0.05826151
0000b0 63 55 e7 3d de 69 b8 be 35 b2 25 3f b7 3a 5a bc
       0.11295583 -0.3601827 0.6472505 -0.013319663
0000c0 db 3d f7 be 61 ca be bf 2d e3 e2 3e 86 11 3c 3f
       -0.4828938 -1.4905511 0.44313946 0.7346424
0000d0 52 97 a8 3d c5 39 e0 3d 8f 78 72 3e 78 3a d4 bd
       0.08231987 0.10948519 0.23678802 -0.103627145
0000e0 16 b0 88 be 94 d2 1d 3e ea 2d 19 bd 7c 2f ef 3d
       -0.26696843 0.1541236 -0.037397303 0.11678979
0000f0 96 91 b5 be 1f ec 9f bf e9 76 33 bf 55 05 f1 be
       -0.35462636 -1.2493933 -0.7010332 -0.4707438
000100 10 8b c3 3c c9 18 a6 3e 3c 72 0f bd 54 bc 0d be
       0.023870021 0.32440785 -0.03502105 -0.13841373
000110 34 f9 0e 3e c5 67 4b be 7b 52 c0 3e a2 da 9a be
       0.13962251 -0.19863804 0.37562928 -0.3024493
000120 90 a2 b0 bd 90 26 3c bf 55 e7 12 3f e0 8f d8 be
       -0.08624756 -0.7349634 0.57384235 -0.42297268
000130 6f 1e 82 3d b2 1c 0e 3e 6b 90 c1 be 4f 1c 80 3e
       0.06353461 0.13878134 -0.37805495 0.25021598
000140 29 f3 39 bf 47 8d 90 bf ed 6e d6 be 99 af d7 bf
       -0.7263666 -1.1293114 -0.41881505 -1.6850463
000150 35 10 99 bf 48 03 15 be b2 95 9d be 34 77 be be
       -1.1958071 -0.14552033 -0.3077827 -0.3720032
000160 a0 a1 75 bf 0e 98 99 bf 98 5c ee bc 57 31 22 bd
       -0.95949745 -1.1999528 -0.029096887 -0.039597835
000170 1b e6 c8 bd c4 85 0b bf eb 52 b1 be c6 c2 2b 3e
       -0.09809514 -0.54500985 -0.34633574 0.16773519
000180 7d c8 c0 3e a5 31 c4 3e 0c 91 b2 3e ae 05 da 3e
       0.3765296 0.38319126 0.34876287 0.42582458
000190 66 08 7e be d2 1d 28 bf e5 e1 89 be 69 55 29 bf
       -0.24807891 -0.656705 -0.26930156 -0.6614595
0001a0 6d 17 2e bf 0a f5 8c be 49 d1 9a bf e4 1c da be
       -0.68004495 -0.275307 -1.2095119 -0.42600167
0001b0 19 fe 0c bf 4a aa 2c bf 22 8c 44 3e 99 9a f6 be
       -0.5507522 -0.6744734 0.19194081 -0.48164824
0001c0 53 3f 62 3e be c1 a2 3e d9 78 4d bd 88 e1 0f 3e
       0.22094469 0.3178844 -0.050164077 0.14050877
0001d0 cf f4 0d bf 45 28 59 be 44 00 a2 be 8a 92 32 bf
       -0.55451673 -0.21206768 -0.31640828 -0.6975485
0001e0 97 ea 4c bd 50 f3 50 bd 69 84 bf 3d 1f 78 0a 3e
       -0.05002841 -0.05101329 0.09351427 0.13522385
0001f0 43 25 2a be 99 b1 8b be fd cc a3 3e af 5c 8c 3f
       -0.16615777 -0.27283934 0.3199233 1.0965785
000200 4f d4 d6 3e 8a b7 95 3e 2d a4 99 bf 66 40 b4 bf
       0.41958854 0.29241592 -1.2003227 -1.4082153
000210 d0 35 d4 bd 1c 64 0f bf 20 28 48 3c 62 df b0 be
       -0.103618264 -0.5601213 0.012216598 -0.34545428
000220 21 d8 57 bf a8 b7 03 3d 6e 8b 3c 3d db 31 ee 3e
       -0.8431416 0.03215757 0.046031408 0.46522412
000230 51 89 68 bd 60 88 1a bf 79 c3 4e be ea e1 fd be
       -0.05677158 -0.6036434 -0.20191754 -0.4958642
000240 d5 6a b0 bf 51 17 aa 3d bd 30 92 3d 68 ae b0 3e
       -1.3782603 0.083052285 0.07138202 0.3450806
000250 a4 60 31 3d c1 75 fa 3d 51 21 23 3e 02 33 ce bc
       0.043305054 0.12229491 0.15930678 -0.025170807
000260 46 97 71 3d 33 e2 56 be b0 e1 c5 3d 4f 4e ad be
       0.058982156 -0.20984726 0.09662187 -0.33848807
000270 99 95 00 bd 3d 88 61 3e ee 67 84 3e cd 83 ac 3b
       -0.031392667 0.22024627 0.25860542 0.0052647353
000280 a3 b7 f7 be a8 09 2b 3e cc 13 1a 3f a2 3a 1e bd
       -0.4838229 0.16702902 0.6018646 -0.038630135
000290 0b f5 54 3c 32 26 62 bd fb 9f d2 bb ea db d6 3e
       0.012997876 -0.055212207 -0.0064277626 0.41964656
0002a0 1d fc 9e be 0e 1e f0 bd f7 6f 11 3e ab 1d 58 bd
       -0.31051722 -0.117244825 0.14202867 -0.05276267
0002b0 d4 57 0f be 85 db 31 bd a6 4d 29 3e 3a 2a b4 bd
       -0.13998348 -0.04342224 0.16533527 -0.087971166
0002c0 53 a1 85 bc a2 86 9a bd 05 94 ac 3d 77 9a 75 bd
       -0.016312277 -0.075452104 0.0842667 -0.059961762
0002d0 c2 03 96 3e 20 81 69 be 40 7c 36 3e a4 8f 3d 3e
       0.29299742 -0.22803164 0.17820835 0.18511826
0002e0 68 53 b4 3e eb d4 dd 3e 8f 3f 55 3c e0 51 04 3e
       0.35219884 0.43326506 0.013015642 0.12921858
0002f0 e9 51 51 bd 3b d3 bb bd c8 90 e1 3e f7 a3 1b bf
       -0.051103506 -0.091711484 0.44055772 -0.60797065
000300 af a2 ef 3d fe 92 27 be 57 a0 00 be d4 fb 58 3e
       0.11700951 -0.16364667 -0.12561165 0.21189815
000310 47 7f 77 3e 56 57 3e 3d 58 71 83 3d 8e a9 0b be
       0.24169646 0.04647001 0.06418103 -0.13638899
000320 33 71 f0 bd 3f 69 8e 3e 12 1e 01 3e 4e 38 25 3d
       -0.11740341 0.2781467 0.12609127 0.0403369
000330 6f 29 22 be c0 f5 dd bb a9 39 42 be b3 f6 00 3e
       -0.15836118 -0.0067736804 -0.18967308 0.12594108
000340 dc 12 ee 3d 05 91 28 be b5 88 b9 3c 6d 51 92 be
       0.11624691 -0.1646157 0.022648195 -0.28577748
000350 bb 8a 88 bd 5f ff d6 bb a7 c9 b1 bd 47 c0 e5 bc
       -0.06667086 -0.0065612043 -0.0868104 -0.028045787
000360 01 36 b3 be 6e 0d ab 3e c1 44 9d 3e c4 94 bb 3e
       -0.3500214 0.33408684 0.30716518 0.36636937
000370 a1 4c 7d be 8c da 0d 3e 28 17 cb bd 5c 71 cd 3d
       -0.24736263 0.138529 -0.09916526 0.10031387
000380 20 81 63 3e 55 90 24 3d 65 9e f5 bd b8 5d 02 3e
       0.22217226 0.04017671 -0.11993102 0.12731063
000390 de 60 9b bd 2c 30 14 bd 26 c0 2b bd 2c cc 3c 3d
       -0.07586835 -0.036178753 -0.041931294 0.04609315
0003a0 22 81 3b be 52 a9 d2 3d 65 7e 42 bc 90 42 39 bd
       -0.18310979 0.102862015 -0.011870955 -0.045229495
0003b0 bb 70 82 be 16 64 80 bd c5 79 8e 3e 68 11 21 3c
       -0.25476632 -0.0626909 0.27827278 0.00983081
0003c0 36 65 e5 3d 10 b8 ac bc 84 61 94 3e e8 cb de bd
       0.11200945 -0.021083862 0.2898065 -0.10878736
0003d0 77 4c 24 bc 04 24 29 bd a3 42 ae bd 7c 1a 19 3d
       -0.010027996 -0.041294113 -0.08508804 0.037378773
0003e0 3a bf a9 3c c1 f4 77 3c 7c 18 14 bd 8d 68 d1 bd
       0.020721067 0.0151340375 -0.036156163 -0.102250196
0003f0 89 29 46 3c b4 9b 80 3c 1f ff 75 3d fe b7 0e 3d
       0.012094864 0.015699245 0.060057756 0.034843437

feature_extraction.bias f4 [48]
000000 1c 0b 37 be 0d c7 eb be 35 1a ac 3e 82 96 1a b9
       -0.17875332 -0.460503 0.33613744 -0.00014742653
000010 4f 6f e3 3a 1f 01 81 3c 63 19 26 3e 52 25 df 3c
       0.0017351898 0.015747605 0.16220622 0.027239475
000020 0c cd 9d bf c6 8a bb 3d 75 94 1b bc 2b 40 1b 3f
       -1.23282 0.09157328 -0.009495844 0.6064479
000030 1b 41 22 3f 45 1c b7 bb b2 b0 5b 3e 2d 4d ed 3e
       0.63380593 -0.005588087 0.21454123 0.46347943
000040 7d ae 15 bf f5 24 fb 3e e9 f7 71 3c 70 8f 72 be
       -0.58469373 0.49051633 0.014768579 -0.2368753
000050 a4 4b 15 3e 9d 1c a4 3b bd 2e 20 3f 05 f3 30 3d
       0.14579636 0.005008294 0.62571317 0.04320051
000060 d8 b6 e0 3d 43 b1 d9 3d 0b 75 28 3f 17 c0 ea 3e
       0.10972375 0.10629513 0.65803593 0.45849678
000070 bf 11 93 3d 42 19 63 3d 6e 0e 3b 3e c3 99 9c be
       0.07181119 0.05544401 0.18267223 -0.3058606
000080 f8 30 81 3d 94 ae d3 bf c8 0d 01 3e 50 f7 75 3e
       0.06308168 -1.6537652 0.12602913 0.24020123
000090 61 77 00 3f 9e 80 02 3d 79 81 5d 3e 0f ae 7e bf
       0.5018216 0.03186094 0.21631421 -0.9948434
0000a0 cb cd 87 3f b8 9f f9 3d d8 a0 db bf 3b 35 8d bd
       1.0609678 0.12188667 -1.7158461 -0.068949185
0000b0 c1 72 90 bf a0 d6 91 bf a3 05 b4 3e b1 3e c2 3c
       -1.128502 -1.1393623 0.3516055 0.023711534

shrink.weight f4 [12, 48, 1, 1]
000000 86 a1 45 3e a0 e1 9a 3e d3 1e f4 3d d2 60 a1 bd
       0.19299898 0.30250263 0.11919942 -0.07879795
000010 af 86 42 3d 9e 2d a9 be ba ec 3f 3e 51 8a 05 3d
       0.047491726 -0.33042616 0.18742648 0.032602612
000020 a5 2f 80 bd 5d 02 12 bd 71 3a 1a bd b4 0d aa bd
       -0.062590875 -0.035646785 -0.03765339 -0.08303395
000030 17 b8 a4 3e 66 ec 2f be b4 28 c3 3d 93 0e 1b 3d
       0.321717 -0.17180023 0.09529248 0.037855696
000040 4b 14 50 be 15 31 98 3d 38 83 a3 bd aa fe 1a be
       -0.20320241 0.07431237 -0.07984012 -0.15136209
000050 63 8a 98 3d 16 50 bd 3e 2d 65 51 3d c6 d0 35 bb
       0.0744827 0.36975163 0.05112188 -0.0027742847
000060 6f ae aa 3d 3b 3f bc bd e8 68 15 be bd 76 b2 3c
       0.08334052 -0.09191748 -0.145908 0.021785134
000070 dd 8a b1 3c 25 0d 2a bc 8c 04 71 bd b3 87 e1 be
       0.02167266 -0.01037911 -0.058842227 -0.44048843
000080 e1 a6 07 3d 6c 96 59 bf 7b 74 f5 bd 52 a2 fe 3e
       0.033118133 -0.8499515 -0.119851075 0.49733216
000090 70 90 25 be 28 9a 13 be 26 2d 58 3d f0 76 e4 bd
       -0.1616838 -0.14414275 0.052777432 -0.11155498
0000a0 9d fd e1 3c 2d c2 27 bc ce 1d 00 3e 98 d9 f5 bc
       0.027586753 -0.010239166 0.1251137 -0.030010983
0000b0 95 c4 58 3f 8f da 29 bc 1f 78 47 be f5 bb 44 3d
       0.8467496 -0.01036705 -0.19479416 0.048030812
0000c0 dc e1 1e 3f bc 35 7c 3f 6d 33 8b 3d e4 ff 25 3e
       0.62063384 0.9851949 0.06796918 0.16210896
0000d0 12 fb e4 bd 6a a2 88 bd db 07 5e bd 5e fc f7 bd
       -0.111807 -0.06671603 -0.05420671 -0.12108682
0000e0 b2 54 ca be 43 02 80 bd 5f 38 2b 3e 17 14 61 3d
       -0.39517742 -0.062504314 0.16720723 0.0549508
0000f0 b1 41 3c 3e b1 6a 4f bd f9 25 cb 3d 89 61 37 be
       0.18384434 -0.05063886 0.09919352 -0.179083
000100 e5 ab 93 bf bb e8 e8 bd 89 f4 af bd e5 a0 2f be
       -1.1536833 -0.11372515 -0.08591563 -0.1715122
000110 33 7f 21 bd 21 43 35 3d 81 62 33 bd 83 b1 ea 3d
       -0.039427947 0.044253472 -0.043795113 0.11459639
000120 f2 f9 1e bd a4 8d f9 3d 4b 76 4b 3e 13 7e 52 3d
       -0.038812585 0.12185219 0.19869344 0.051389765
000130 e9 b4 53 be fe 43 12 3e 91 91 ba bd c0 d0 a8 bf
       -0.2067448 0.1428375 -0.09109796 -1.3188705
000140 50 0f e8 bd bd 0b 17 3f 77 70 d9 bc 67 74 c0 bd
       -0.11331046 0.59002286 -0.026542885 -0.09397202
000150 90 b0 75 3e 39 d6 6f 3e 5d 0f 56 be fd f1 8a bf
       0.23993134 0.23421563 -0.20904298 -1.0855099
000160 8c 7c 44 be 1c b1 09 3e 6c 9c 64 3e ba 5f cf 3c
       -0.19188136 0.13446468 0.22325295 0.0253142
000170 01 f1 9c 3f a7 7d 1c bf 51 a7 09 bd bb 1a 85 3e
       1.2261049 -0.6112923 -0.03360683 0.25996956
000180 83 2e 6c 3e a5 7e 3b 3e ed f4 9d 3c 40 bd 6f 39
       0.23064618 0.1831003 0.019281829 0.00022863317
000190 5b 0d 14 bd 54 6b 66 3d 43 0e 47 3e 35 a7 5f bc
       -0.03614555 0.0562547 0.19439034 -0.013650705
0001a0 a2 0a 78 be 2c 75 87 bc 2a 78 de 3c ec ca d9 ba
       -0.24222806 -0.016535364 0.027156908 -0.0016616262
0001b0 68 3a 0d bd 36 65 a9 3a ce ac 74 3d 57 94 39 bd
       -0.03447953 0.001292384 0.059735112 -0.045307484
0001c0 83 8a a0 be 4b 8a 14 bd 7a 40 d5 bc f4 0b a7 bc
       -0.31355676 -0.0362647 -0.026031721 -0.020391442
0001d0 f0 3b e8 3d 97 63 8d be f1 c3 01 be f9 62 0b 3e
       0.11339557 -0.27615044 -0.12672402 0.13611974
0001e0 41 9e 38 3d af a4 cf 3c fe 47 0f 3c 56 c5 3e 3d
       0.045072798 0.025347082 0.008745192 0.046574913
0001f0 80 d5 28 bd d0 06 f2 3c 31 ec 65 3d 71 af a4 be
       -0.041219234 0.029544264 0.056133453 -0.321651
000200 c8 85 8d 3b 91 e8 09 3f 83 0e 97 3e c2 3d 4b 3d
       0.0043189265 0.53870493 0.2950326 0.049619444
000210 8c c6 57 bd b5 0e ee 3d d9 16 3e bd bc 73 f6 bd
       -0.052679583 0.11623899 -0.046408508 -0.12033793
000220 93 89 f1 bc 56 9d 30 3c 59 6f ff 3d d4 f1 04 bd
       -0.029484546 0.010779699 0.1247241 -0.032457188
000230 37 76 8a 3e 1c a9 9f be a5 51 19 3c b3 32 3d 3c
       0.27043316 -0.31183708 0.0093578445 0.011547732
000240 93 2d b0 bc 05 75 88 3d a2 20 a8 bd b4 38 ac bd
       -0.021506106 0.06662945 -0.08209349 -0.08409253
000250 3e 75 da 3c 3d 66 78 bc 91 1f b4 be e3 bf 37 3d
       0.026667234 -0.015161094 -0.35180333 0.04486073
000260 19 76 c6 3c 41 00 63 3d 1c ca b4 bd 29 a6 d9 3d
       0.024226235 0.055420164 -0.08827612 0.10627396
000270 e7 5f 9a 3c 50 b0 7e bd 3a 22 b0 bd 38 86 21 bd
       0.018844558 -0.062179863 -0.08600278 -0.03943464
000280 8b c3 02 be 33 30 7b be dd ec 2d bd 7f 60 ce bc
       -0.12769906 -0.24530105 -0.04246222 -0.025192497
000290 4a 2d 05 bc 68 e4 81 3e 9d f2 97 3e a4 d7 e6 bc
       -0.008128474 0.25369573 0.29677287 -0.028178997
0002a0 4d a1 53 3e 99 91 dd bb 34 4e 84 bd 7d bd e8 bd
       0.20667 -0.0067617414 -0.064602286 -0.11364267
0002b0 f2 cc 67 3d 71 1e 0f bd c8 32 dc bc da 9d 34 be
       0.056591935 -0.03494114 -0.026879683 -0.1763834
0002c0 dd 25 67 3d 9e c6 5d bd 4b 6b 1c 3e 8e 97 b0 3e
       0.056432594 -0.054144494 0.15275304 0.34490627
0002d0 4d e2 20 3d da 3b 38 3c f9 4d dd 3b b5 31 d6 bd
       0.039278317 0.0112447385 0.00675368 -0.104586996
0002e0 65 eb bf 3d cb 86 60 bd 40 86 9f 3c 17 c4 83 bc
       0.0937107 -0.05481605 0.019473195 -0.016084714
0002f0 1b e0 87 3e ab 4d 59 bc aa c9 1c 3b 70 9a 7e 3c
       0.26538166 -0.013263146 0.0023923912 0.01553975
000300 c5 53 fc 3e 03 96 0e 3f 28 dd 2b bd 99 7e b4 3d
       0.4928266 0.5569765 -0.041958958 0.08813209
000310 71 a5 c4 bd 7d fc 19 be 33 0e 88 be 22 01 cc bd
       -0.09601868 -0.15037723 -0.26573333 -0.099611536
000320 d3 d7 87 be d4 95 d3 bd 7b 91 25 3e 3f fc 47 be
       -0.26531848 -0.10331312 0.16168778 -0.19529818
000330 3c 2f a4 be a0 cc 1e be 54 00 d6 3d 79 7a 6b bd
       -0.32067287 -0.15507746 0.10449281 -0.057489846
000340 21 5d 03 bf 09 ed be 3e bb 90 92 bc dc 5c e0 be
       -0.5131398 0.37290218 -0.017891278 -0.43820846
000350 51 3d e1 3d f8 b3 fd bd 37 9d ca 3e 01 6b e9 3d
       0.10998023 -0.12387842 0.3957307 0.113973625
000360 b9 66 a5 bd db 1f b4 3d 13 a8 f8 3d 89 be b3 bb
       -0.080762334 0.087951384 0.121414326 -0.00548536
000370 b2 33 38 be 6e c2 ba 3d 54 17 2a 3d 84 b6 45 bf
       -0.1798847 0.09119116 0.041526154 -0.7723162
000380 21 84 ba bd 90 6a f4 bd 1b 7f 44 3d 05 35 58 3c
       -0.09107233 -0.11934388 0.04797278 0.013196235
000390 69 fa a2 be 13 04 67 3d 52 7d e0 bd 2b 9a 29 bf
       -0.31831673 0.05640037 -0.10961403 -0.66250867
0003a0 7f d0 52 be 5a 99 0f 3e 5f 77 57 3e f7 28 6c 3c
       -0.20587347 0.14023343 0.2104163 0.014414064
0003b0 ef 35 7e 3f 4a 9d b7 be 30 ea 9a 3e b4 d1 47 3e
       0.99301046 -0.3586219 0.30256796 0.19513589
0003c0 78 c8 e2 be 8a 35 a7 be 63 0f fe bd 0c cf 88 bc
       -0.4429357 -0.32658035 -0.124052785 -0.01670029
0003d0 ea ee dd 3c 21 e4 19 be 67 8e 8a 3d a0 1c 1a 3b
       0.027091462 -0.1502843 0.06765442 0.0023515597
0003e0 0c 0d 48 3e ea 91 81 3c 75 a5 44 3c f3 6b 1a bd
       0.19536227 0.015816648 0.012002339 -0.037700605
0003f0 06 2f 5c be 17 f1 75 3d 5e 22 62 bc 44 87 2b 3e
       -0.21502313 0.060044374 -0.013802139 0.16750818

shrink.bias f4 [12]
000000 d4 86 88 be 1e 21 82 3c 24 7c 10 bf ae 9e 65 bd
       -0.26665366 0.015884932 -0.56439424 -0.056059532
000010 5a 74 0b 3e d1 22 b4 3e b2 02 40 be 6b 92 97 3e
       0.13618603 0.35182813 -0.18751028 0.29603896
000020 3f 8d 08 3f dd 7b 9d 3c 91 b3 01 3e d2 16 49 be
       0.53340524 0.019224102 0.12666155 -0.19637612

lm1.weight f4 [12, 12, 3, 3]
000000 62 38 95 bc 3f 28 82 3e 73 db e0 bc f1 32 35 3e
       -0.018215362 0.2542133 -0.027448392 0.17695214
000010 ca 68 61 be 14 85 de 3c 7b 16 bf 3d 2c 49 8e bd
       -0.2201263 0.027163066 0.0933046 -0.0694755
000020 89 d3 88 3d d1 37 4a bd 35 39 62 3d 3f 1e b0 bc
       0.06680972 -0.049369637 0.055230338 -0.021498797
000030 17 75 de 3d ae c0 74 be 10 fa 22 3e c3 d6 27 be
       0.10862177 -0.23901626 0.15915704 -0.16390519
000040 59 67 31 3e 88 89 04 be 1a 2e b0 bd 49 0b d7 3d
       0.1732458 -0.12943089 -0.08602543 0.10500199
000050 46 fc ad 3d 96 6c 9c 3c 44 d2 1e 3e 88 fd 4d be
       0.08495383 0.019094747 0.15509897 -0.20116246
000060 f2 ac 39 bc a9 78 2e 3d 70 2f a1 3c 2f dd b2 3c
       -0.011332737 0.04259554 0.01967594 0.021833984
000070 78 51 56 be 6b f0 3b 3e a7 dc ab 3d b4 31 71 3f
       -0.20929515 0.18353431 0.083916955 0.94216466
000080 f9 9e fb be 6c 41 62 bd d3 94 ea be 46 70 e8 3d
       -0.49144724 -0.055238172 -0.4581667 0.113495395
000090 b2 f3 4f be 8e 73 8b 3d be 5d 26 be 72 fb ae 3d
       -0.20307806 0.0680915 -0.16246697 0.08544053
0000a0 15 83 33 bf 70 9b 2e 39 20 9b b9 bd 29 eb e2 bc
       -0.7012189 0.00016651838 -0.09062791 -0.027700024
0000b0 66 eb 14 be 55 bb b9 bd ab 10 6e be 28 bc b9 3d
       -0.14542922 -0.09068934 -0.23248546 0.09069091
0000c0 09 24 b3 bc 01 ae ae 3d 24 e3 90 be ba 49 79 3d
       -0.021867769 0.08529282 -0.28298295 0.060861327
0000d0 66 29 fc 3d 46 a2 d4 3d 83 81 c2 3d 9e 85 ac bd
       0.123125836 0.10382514 0.09497359 -0.08423923
0000e0 ce 9f ee 3d 67 7d 87 be 13 51 9f 3e 6c 2d 91 be
       0.11651574 -0.26462862 0.31116542 -0.28354967
0000f0 fa 67 1b 3e f8 c7 8f be 77 c0 44 3e 92 89 04 bd
       0.15176383 -0.28082252 0.19214045 -0.03235776
000100 6b 89 63 bd 56 07 9a 3d d2 79 24 3d eb 27 bf 3e
       -0.055550974 0.075209305 0.04015524 0.37335142
000110 86 b5 06 bf ab a7 2c be 8e 6d b5 3e 2e 5d df 3d
       -0.5262073 -0.16860835 0.35435146 0.109064445
000120 60 39 91 bd 8b d2 c9 bd 98 47 7e 3c 2f db 42 be
       -0.070910215 -0.09854611 0.015519999 -0.19028924
000130 cd 9c 03 be 7a cf ec 3e 16 6e 01 3e 70 4f ce bb
       -0.12852784 0.46252042 0.1263965 -0.006296091
000140 48 c7 8c bd be 9f 82 3d 6f 91 bb be 75 06 e9 3c
       -0.068739474 0.06378125 -0.36634395 0.028445462
000150 3a 7a 96 be e7 19 a1 bd 32 21 03 3e e5 29 2b 3c
       -0.29390126 -0.078662686 0.12805632 0.010447
000160 81 e6 70 be 0d dc 6b 3d ab b3 b7 bd 81 fd ef be
       -0.2352543 0.057582904 -0.08969816 -0.46873096
000170 39 f2 85 bd 3a 8b bc 3e 8c fe dd 3e f3 7a bb 3d
       -0.06540341 0.3682497 0.43358266 0.0915431
000180 0b dc 8c 3d 4e ff 02 bf 1b bc a0 3d 81 b1 d7 3d
       0.06877907 -0.51170814 0.07848378 0.10531903
000190 70 06 84 bc 6a 56 86 bd fc dd df 3d fd 21 4f bf
       -0.01611635 -0.06559451 0.10931012 -0.80911237
0001a0 ba 30 88 3d a3 dd 1a bd eb b3 14 3c 29 7d 0c 3d
       0.06649919 -0.037809025 0.009076099 0.03429905
0001b0 e3 e2 79 3e d9 8a 3d 3e 96 ae d6 bd 6e cc c0 3e
       0.24402957 0.18509997 -0.104825184 0.37655967
0001c0 bf 2f 3f bf e8 95 bc 3e ef 1e 32 3d 09 4f 19 3e
       -0.7468223 0.3683312 0.04348653 0.14971556
0001d0 82 04 6b bd af 12 0f be 5e 42 8d 3e bb 97 23 3c
       -0.057377346 -0.13971971 0.27589697 0.009984906
0001e0 9f 99 41 be 61 36 7a be 07 3b 96 3d bd 7b 12 be
       -0.18906258 -0.24434806 0.07335477 -0.14305015
0001f0 23 74 85 3e 15 bb 03 3d 1d 19 b0 3d 6f 31 1d 3e
       0.26065168 0.032160837 0.0859854 0.15350889
000200 df e4 9b 3d ba c8 3c 3e 52 44 fc be ac 22 ac bd
       0.07612013 0.18435946 -0.49270874 -0.08405051
000210 2e 17 a6 3c ca ff 25 3d 8a 5b e9 3c c0 cd 64 3d
       0.020274725 0.040527143 0.028486032 0.05586028
000220 7c bb 42 3e a2 c7 d4 3d eb 6c 62 be 36 33 96 bf
       0.19016832 0.103896394 -0.22111861 -1.1734378
000230 10 6c 98 3d 17 78 15 bd 5e 3b 44 3e 5a b1 8d bd
       0.07442486 -0.03649148 0.19163272 -0.06918593
000240 a3 ae 34 3e 13 e1 ae be 06 7b 29 bd 03 e2 12 3e
       0.17644744 -0.34156093 -0.04137709 0.14344029
000250 b4 db 02 bf f9 17 38 be 62 58 34 3c 2d 9c a9 bd
       -0.5111649 -0.17977895 0.0110074 -0.08281741
000260 b3 c2 18 3d bb f0 55 3d 3a f8 59 be 06 b2 df 3d
       0.037295055 0.05223153 -0.21286097 0.10922627
000270 3a 39 bb 3d 71 e5 b8 be 7d 2e 8d be 87 15 99 be
       0.091417745 -0.3611255 -0.2757453 -0.29899237
000280 08 db e0 3d f2 e3 25 3e ba cc 27 3a 54 ca bb 3c
       0.10979277 0.16200235 0.0006401051 0.022923626
000290 02 68 4d 3d 68 a1 e8 bd dd 3f d6 be 4f 20 4b 3c
       0.050148018 -0.11358911 -0.418456 0.01239784
0002a0 cc ab 4d 3e 3b 25 ea 3d 8e 8d fa 3c d8 ad b1 bb
       0.20085067 0.114328824 0.030585077 -0.005422335
0002b0 56 f6 8b bc 9b e2 c6 bc cc 36 9c 3e 4d 0a 3a 3f
       -0.017085236 -0.024277976 0.30510557 0.7267197
0002c0 3c 70 45 be 34 48 a2 bd 14 13 8c be 18 3c 02 3e
       -0.19281095 -0.07923928 -0.27358305 0.12718236
0002d0 fc 63 01 3e bd 30 c1 be 43 1f be 3d bc aa be 3e
       0.12635797 -0.37732497 0.092833064 0.37239635
0002e0 46 5b de bb 02 0c 9e 3e 90 27 31 3d 10 14 03 3e
       -0.006785783 0.30868536 0.04325062 0.12800622
0002f0 86 a2 3f be 85 cf f1 bd ea 50 30 be e5 47 80 bb
       -0.18714342 -0.11807159 -0.17218366 -0.0039148205
000300 bf ce cd be ec e9 f4 3e 8d 81 53 bd 11 c6 25 3d
       -0.40196797 0.47834718 -0.05163722 0.040472094
000310 f5 8a 77 be d8 d3 4c 3e 62 62 5f 3e 77 bb 77 be
       -0.24174102 0.20002687 0.21814874 -0.24192606
000320 19 ee b9 bd 50 ee 8e 3e 1c 4f 17 3f c6 6b 8d 3e
       -0.09078617 0.27916193 0.59105086 0.27621287
000330 ad de fb 3d 61 40 0c bd 13 b5 46 3e ef 8c 3d be
       0.122983314 -0.034241084 0.19405012 -0.18510793
000340 77 5c 7f be fe f2 96 bd fe 77 6a 3e 8d b4 ad 3d
       -0.24937616 -0.07370566 0.22897336 0.08481703
000350 f5 0b 9e bd 10 18 f1 3c 0d b5 81 be b4 a4 ec 3d
       -0.077171244 0.02943042 -0.25333443 0.11554852
000360 96 b1 e5 3d 9d 19 84 3d 50 c5 b9 bd ec 5b 45 3e
       0.112155125 0.06450198 -0.090708375 0.19273347
000370 92 0c ce be 89 de f1 bc 4d fe 16 be e9 27 15 3e
       -0.40243965 -0.029525058 -0.14745446 0.14566006
000380 96 10 bd 3d 3f 31 2b bd 9c 69 21 3e ef 18 f3 bd
       0.09231679 -0.04179501 0.15762943 -0.1186999
000390 67 3e c8 bd 9e 2d 0c 3f 45 be 51 bd ca b4 8c 3d
       -0.09777527 0.54757106 -0.051206846 0.0687042
0003a0 37 05 14 be 08 09 2b be ef 38 38 3e 24 b8 a0 3d
       -0.14455114 -0.16702664 0.17990468 0.07847622
0003b0 60 42 47 3d 5d 4f 6d bd 16 aa b8 be 6d 1e 65 bd
       0.048647285 -0.057937015 -0.36067265 -0.05593722
0003c0 83 44 84 3d 63 26 61 bd 47 5e 7d bd 7b 15 2f 3d
       0.0645838 -0.05496825 -0.061857488 0.042745095
0003d0 8b 05 b1 3d 37 b6 77 3e d8 e4 0e 3d ac ba 51 3e
       0.08643635 0.24190603 0.03488621 0.20481366
0003e0 3c 72 64 be 1f a3 45 bd e8 c0 f1 bd 19 91 03 be
       -0.22309202 -0.048251268 -0.11804372 -0.12848319
0003f0 27 7c 49 be e1 04 a7 bd d5 ac a6 bd c5 6a a8 bc
       -0.19676267 -0.081552275 -0.08138434 -0.020558724

lm1.bias f4 [12]
000000 57 dc 15 be cc ed 8d bd 40 07 1c 3c 07 56 ee bd
       -0.14634834 -0.06930122 0.009523213 -0.11637502
000010 f1 3d fa bd d2 70 f3 3d 96 74 7e 3c 3c 22 da bd
       -0.12218846 0.11886753 0.015530726 -0.10651061
000020 ae fd 9d bd 1c dd 94 bd bd 7f 57 3e 93 33 8f bc
       -0.07714401 -0.07268736 0.21044822 -0.017480647

lm2.weight f4 [12, 12, 3, 3]
000000 ee 80 05 3e d5 95 f9 3d 58 a0 b5 3d 21 bf 41 be
       0.13037464 0.12186781 0.08868474 -0.18920566
000010 6c db e7 3e c2 cf 77 be 53 9c ea 3d ba 24 49 bf
       0.45284593 -0.24200347 0.11455598 -0.78571665
000020 1b 97 18 3e 83 2d 6e bc 0c 16 16 bb 01 91 99 be
       0.14901392 -0.014537218 -0.0022901325 -0.29993442
000030 9d 21 09 be 49 f8 1c 3f 0c 9f 2a bc fe ed 41 3c
       -0.13391729 0.61316353 -0.010413896 0.011836527
000040 88 a7 56 bd 02 36 e6 3e 08 d1 5c 3e 18 a0 c6 bd
       -0.052405864 0.4496308 0.21564114 -0.09698504
000050 6d 6f df bd f3 b4 c1 3d c4 fc 2b 3e c4 66 2b be
       -0.10909925 0.094583414 0.16795641 -0.1673842
000060 3a 4b 90 3d fb b2 c4 bc 2d 72 c6 3c cf db 5d bc
       0.07045598 -0.024011126 0.024224365 -0.013541176
000070 86 39 e6 3e b8 3f 8b bd 2a e6 9c be 12 21 28 bf
       0.44965762 -0.06799263 -0.3064435 -0.6567546
000080 e6 c3 8a bc 0f cc 27 3e 7e ea 94 be 1f b8 72 3e
       -0.016939115 0.16386436 -0.29085153 0.23703049
000090 6f bc 8c be 29 28 ee 3e a5 5f 07 bd 62 a9 8a 3e
       -0.27487513 0.46515015 -0.033050198 0.27082354
0000a0 2d 1b 92 bf 68 26 3e 3e 1b 9e be bd af 34 aa 3e
       -1.1414543 0.18569338 -0.093075 0.3324332
0000b0 62 c9 a1 bd 4a c7 a2 be c8 6c b6 bc 6c e3 f4 3d
       -0.07899739 -0.3179267 -0.022268668 0.1195744
0000c0 0f f7 25 3d 4d 7e 06 3f fa 93 1f bd bf 13 89 3c
       0.040518817 0.5253647 -0.03895948 0.016733048
0000d0 20 e8 a4 3c 62 eb bc bd 87 6e 05 be c7 76 fb bd
       0.020130217 -0.09224583 -0.13030444 -0.12278514
0000e0 84 27 bc bd fd d7 b6 3d 5b f6 23 3d 40 e0 e4 bd
       -0.091872245 0.08927915 0.040029865 -0.11175585
0000f0 a5 32 ea ba 19 07 eb be e9 f6 e7 bc 7d 12 8a bb
       -0.0017867876 -0.45903853 -0.028315978 -0.0042136298
000100 34 15 86 3e 33 45 cd bc f1 b1 e1 3d 45 0a 62 3e
       0.26188052 -0.02505741 0.11020268 0.2207423
000110 12 a0 42 be 56 73 25 be 78 d6 54 be 6f eb 34 3e
       -0.19006374 -0.16157278 -0.20784938 0.17667936
000120 aa 4c 04 bd ee 1c 0f be 69 df 4e be 58 42 29 3e
       -0.032299675 -0.1397588 -0.20202412 0.16529214
000130 fe 31 be 3e 16 74 d1 3d d5 ba 5a bd 44 ec 37 3c
       0.37147516 0.1022722 -0.053400833 0.011225764
000140 1f dd 63 3e 31 c6 c9 bb 14 3e b1 bb 72 f6 b9 be
       0.2225232 -0.0061576595 -0.0054090116 -0.36320835
000150 19 78 8b be 89 50 96 3e 16 fc f9 3d 9e 7d 9d 3e
       -0.27240065 0.29358318 0.12206285 0.307599
000160 45 1d 70 be 8e a6 70 3d d6 b1 be 3d 86 cd 64 3e
       -0.23448665 0.05875259 0.09311263 0.22344026
000170 ca ee 0d be 2e 9f 15 be fc bd 81 be a2 3d 90 3d
       -0.13860622 -0.14611503 -0.2534026 0.070430055
000180 a2 e5 97 3d 55 f6 3d bd 64 a9 c5 3d d2 3e b1 3d
       0.07416846 -0.0463775 0.09651449 0.0865456
000190 03 e1 e8 bc 2a af 06 3e 5f 6c 81 be e5 20 93 3e
       -0.028427606 0.13152757 -0.25277993 0.28736034
0001a0 71 1e e7 be 93 65 f1 3b 44 af 12 3d 65 ad 01 bd
       -0.45140412 0.007366845 0.035811678 -0.031659503
0001b0 7c e4 88 bc ee ac 13 be c3 e6 5e 3d d2 2f 2f 3e
       -0.016710512 -0.14421436 0.05441929 0.17108086
0001c0 0f 3b 84 3d 29 45 81 bd 0a 7d 91 bd e1 a1 e4 3d
       0.06456577 -0.063120194 -0.071039274 0.111636885
0001d0 c5 ce e6 bd 0f 9d 36 3e fa 67 51 be 64 4b 32 bc
       -0.11269907 0.1783335 -0.2044982 -0.010882232
0001e0 33 2a 05 be d9 a2 a9 3e c7 f4 67 be 1e 79 96 bd
       -0.13004379 0.33132055 -0.22651969 -0.0734732
0001f0 69 8b 8f bd 1e 03 b5 3e f7 7c d2 bd 7a 88 41 bd
       -0.07009012 0.3535394 -0.102777414 -0.047249295
000200 01 36 7f 3d 08 79 bf bc 37 d6 d8 3e 56 59 9c bc
       0.06230736 -0.023373142 0.42350933 -0.019085567
000210 e1 7e d3 3b 61 62 b6 bd de b7 12 3d 8d 04 96 3d
       0.006454334 -0.08905483 0.03581988 0.07325087
000220 7a b1 39 bd 86 be 95 3d c0 c6 e4 3b 81 ad 90 be
       -0.04533527 0.0731173 0.0069817007 -0.28257373
000230 76 1e 30 be a3 db 4d 3d 4d fe 94 3e 47 5b 3e 3d
       -0.1719912 0.05025829 0.29100266 0.046473768
000240 92 29 59 bd 2d d2 6f bd 8e 2a 95 3d af 3c 97 bd
       -0.05301816 -0.05855005 0.07283507 -0.07384621
000250 28 90 27 3e cb 8a d5 bd f5 ec cc bd 13 be 59 3e
       0.16363585 -0.10426863 -0.100061335 0.21263914
000260 92 39 33 bd 34 45 20 bd 89 4a 6a bd ad 6e 12 be
       -0.043756075 -0.039128497 -0.05719999 -0.14300032
000270 30 93 64 bc f5 bb e5 3e 29 ed 2b 3e d2 07 db 3d
       -0.013951108 0.44869962 0.16789688 0.10694851
000280 69 78 ab be 45 5e 3d bd 32 80 86 bd cf 3a a6 3d
       -0.33490303 -0.04623248 -0.0656742 0.081166856
000290 64 b0 a1 bd 5a 2e 1c be b6 3b b5 3e 02 3a a2 3c
       -0.07894972 -0.15252057 0.35397118 0.01980305
0002a0 c3 45 47 be 91 15 02 3e cb a0 1c be bc 5d 17 3e
       -0.19460206 0.1270354 -0.15295713 0.1478185
0002b0 39 b7 1a bd 66 00 a0 3d 29 00 82 bc cf 7c 7e 3e
       -0.03777239 0.07812576 -0.015869217 0.24852298
0002c0 96 e2 ba be 09 19 39 bd 4f a2 9b bd a5 1c 1d 3e
       -0.36500996 -0.04518989 -0.07599317 0.15342958
0002d0 04 36 59 be 9e 4a 21 be bd 27 88 3d be 18 35 bd
       -0.21212012 -0.1575112 0.066482045 -0.04421305
0002e0 07 a8 e4 3e 19 3f e7 bd 7a 43 34 be c8 fc 4b 3e
       0.44659445 -0.11291332 -0.17603865 0.19920647
0002f0 cc 27 f7 3d e0 f8 71 3d 95 ae 96 be 40 db 9c bd
       0.120681375 0.059075236 -0.2943007 -0.07659006
000300 8e 48 8d be 1a 70 0d 3f 0b 46 a3 3d e6 ab 38 3e
       -0.27594417 0.5524918 0.07972344 0.18034324
000310 4f 21 82 3d 92 72 00 be b2 92 8e bd d8 49 29 3e
       0.06354009 -0.12543705 -0.06961574 0.16532075
000320 83 3d 06 be 2a 33 ab 3e 49 bd 30 3f ef 4a c7 3d
       -0.13109402 0.33437473 0.69038826 0.09731089
000330 17 3e 1c bd 82 98 6a 3e 5b b8 c4 bd 48 27 90 3e
       -0.03814515 0.2290974 -0.096054755 0.2815497
000340 3a 1c 4c bd 65 25 de bd 19 ed 65 be b7 a5 6d bc
       -0.049831606 -0.10846976 -0.22453727 -0.0145048415
000350 42 f4 79 be 49 12 4b 3e db ce 83 3d c9 18 07 3e
       -0.24409583 0.19831194 0.06435939 0.13193049
000360 09 6c 91 3c e0 4f 09 bd 61 8f 3c be c3 5a ed 3d
       0.01775171 -0.03352344 -0.1841407 0.11589577
000370 de 1f ea bd c9 84 da 3e d2 4d 4d be a8 ad ef 3e
       -0.114318594 0.42679432 -0.20049217 0.46812177
000380 3d 42 80 bc 10 9b bf 3c 0a ca ef bc a5 4a 33 3e
       -0.015656585 0.02338937 -0.029271144 0.17508943
000390 aa a7 f8 3d f3 42 15 bf be 8f c2 bd 97 f1 1f bc
       0.121413544 -0.5830528 -0.09500073 -0.009762189
0003a0 1c 62 e5 bd 0e d3 a9 3e 8d 4c d3 3c 82 cd 93 bd
       -0.112003535 0.33168834 0.025793338 -0.07216932
0003b0 56 c2 2c be 1f d2 89 bb 2c 19 11 3f 46 da db 3e
       -0.16871008 -0.0042059566 0.56679034 0.42939967
0003c0 78 be 1a be 21 bd 38 3d f6 6e 8d 3d 83 8a 07 bd
       -0.1511172 0.045102242 0.0690593 -0.03309108
0003d0 a7 79 78 3e 7c 14 0e be fe a4 08 be 2c a0 83 bd
       0.24265157 -0.13875002 -0.1334419 -0.06427035
0003e0 32 ca 62 3e 6b e6 aa 3d 49 39 99 3d 95 5a 5b 3c
       0.22147444 0.0834473 0.074816294 0.013388296
0003f0 eb 46 05 3c 73 7f b4 3d 38 44 82 3d 49 72 20 3d
       0.008134584 0.088133715 0.06360668 0.03917149

lm2.bias f4 [12]
000000 46 86 de bd 78 e0 ed bb 57 9e 00 3e 43 c5 e0 bb
       -0.108654544 -0.007259425 0.12560402 -0.006859453
000010 c6 51 1f 3b 1a a0 b8 bd fa ff e2 3d 79 c5 01 3e
       0.0024310215 -0.09014912 0.1108398 0.12672986
000020 e8 3c 05 be 48 a4 11 3e 16 24 29 be 53 a5 8f 3e
       -0.13011515 0.14222825 -0.16517672 0.2805582

lm3.weight f4 [12, 12, 3, 3]
000000 40 15 04 3c e4 3c 90 bd dc 1b 63 be 9a 06 37 3d
       0.008061707 -0.07042864 -0.22178596 0.04468403
000010 a4 56 2c be 07 f7 7f bd 68 23 87 bd e6 f2 99 3e
       -0.16829926 -0.062491443 -0.0659855 0.3006813
000020 9a b6 dd bd 9d 38 a1 bd 13 2f a1 3d ff 33 8d be
       -0.10825844 -0.07872126 0.07870307 -0.27578732
000030 8e 0f 24 3d 7b ad 34 bd 65 50 19 bd 97 4e e5 3d
       0.040053897 -0.044110756 -0.037430186 0.111966304
000040 8d 4b d3 3b 01 d0 8c 3c b0 a9 4e 3d 8c 03 9c 3e
       0.0064482153 0.017189028 0.050454795 0.30471456
000050 53 cd eb bd e9 5b 77 3c 01 32 aa be c6 75 1e 3e
       -0.11513772 0.015097597 -0.33241275 0.15474615
000060 59 36 55 be 42 3a f2 bd 3e a1 9e 3d 1c cc e6 bc
       -0.20821513 -0.11827518 0.07745598 -0.028173499
000070 b0 fb bd 3e d4 cd 02 be 87 21 3f 3c 78 97 f7 bd
       0.37106085 -0.1277383 0.011665708 -0.12089437
000080 a1 e1 4e 3e c8 41 5d bd 19 45 09 3e c2 cb a1 be
       0.20203258 -0.054017812 0.13405265 -0.31600767
000090 06 19 a3 be cc 01 05 3e aa 05 1f be f4 f7 d9 bd
       -0.3185503 0.12988967 -0.15529504 -0.106429964
0000a0 ac 23 1c bf a9 a6 76 be ef 67 fa 3d 59 a2 82 3e
       -0.6099193 -0.24087013 0.12226855 0.25514486
0000b0 93 3d 60 3e d5 a5 aa 3b 0a 7f 13 3e 76 ed 16 3e
       0.21898489 0.005207757 0.1440393 0.14739022
0000c0 f2 90 48 3e e2 77 22 bf 92 67 3b 3e 80 f4 62 be
       0.19586542 -0.63464177 0.18301228 -0.22163582
0000d0 00 f6 06 3f 26 5f f6 3d 92 c7 05 3e bf b3 8e bd
       0.52719116 0.12029867 0.13064411 -0.069678776
0000e0 b9 fd d5 3d 4c 0f e9 3d 0a 12 ce be 81 a8 ac 3d
       0.104487844 0.11379871 -0.40248138 0.08430577
0000f0 66 49 31 3e 56 a5 63 3d 05 23 32 be c6 b0 ea 3e
       0.17313156 0.0555776 -0.17396171 0.45837992
000100 e5 ac 4b 3e 21 17 bc 3c 57 cb 8b be 64 19 5e 3f
       0.19890173 0.022960247 -0.27303573 0.86757493
000110 18 5a 01 3d 28 df 24 be bd ca 0a 3e ac 5b 77 3d
       0.03158006 -0.16100752 0.13553901 0.06039016
000120 79 7e 83 3d d7 d8 95 3c 17 b0 8e be 75 e0 39 3e
       0.06420607 0.018291874 -0.2786872 0.1815203
000130 46 8b ef be cd 2a 8e 3e 3e d7 85 3d 45 c2 ab 3d
       -0.46785945 0.2776703 0.06535195 0.08386663
000140 b2 51 85 3e 8a a7 52 be 0b b8 76 3d b1 44 9e 3d
       0.2603889 -0.20571724 0.06023411 0.077279456
000150 c3 c7 ed be ff 77 c7 3e 91 58 83 be 6b a6 02 3e
       -0.4644147 0.38958737 -0.25653508 0.12758796
000160 11 dc 8c be 00 ee b4 bd 31 a6 15 3e 8c 6f 9e bd
       -0.27511647 -0.088344574 0.14614178 -0.0773612
000170 a3 2d b3 bd bb 61 16 3e 9d 52 79 3d e2 b7 6b bf
       -0.08748939 0.14685719 0.0608698 -0.9207746
000180 64 46 0d 3c 70 d4 ae 3e 92 4f 2a 3e ce 7c ae bd
       0.008622739 0.34146452 0.16631916 -0.08519898
000190 23 07 81 be 3c 85 2d be 5e b9 d6 bd 32 56 34 bd
       -0.25200757 -0.16945356 -0.10484575 -0.044027515
0001a0 ba 4f 94 3c 40 d5 71 bd e9 a4 99 be 41 3a 10 be
       0.018104423 -0.05904126 -0.3000863 -0.14084722
0001b0 71 4a d0 bc 33 48 8d 3c 34 0a 9c be e5 6d a2 be
       -0.025426121 0.017246341 -0.30476534 -0.31724468
0001c0 f7 51 15 bc 99 60 6d be 67 77 a6 bb cd 76 a0 3d
       -0.00911378 -0.2318138 -0.005080152 0.078351595
0001d0 8c e3 ea 3d 5d 28 b3 bc 30 50 3d bd a9 0f ab bc
       0.11469182 -0.021869833 -0.04621905 -0.02088149
0001e0 09 af 8a bc 40 18 41 be 2e e2 81 3b df 14 cd 3c
       -0.016929166 -0.18856907 0.0039637303 0.025034366
0001f0 2e 0c 83 bd f8 ac 81 bd 7f 96 19 be ac 9f 62 be
       -0.063988075 -0.06331819 -0.14998816 -0.22131222
000200 70 ea cd 3c 72 68 7a 3e fc 67 7b 3f cb 70 88 3e
       0.025136203 0.24453905 0.9820554 0.26648554
000210 b5 b3 0b 3e f9 7b 88 3e 29 31 51 be 4d 93 14 bd
       0.13642772 0.26657084 -0.2042891 -0.03627329
000220 a6 65 b7 bc ad a8 c6 bd 4c be 82 3d 43 fc 70 be
       -0.022387337 -0.09700141 0.063839525 -0.2353373
000230 be 35 88 3e 06 fe 59 bd ee 25 0f bc e0 f3 a3 bd
       0.26603502 -0.05322077 -0.0087370705 -0.080055
000240 c2 31 9e 3e cb 08 8a bd de f2 9d 3e d5 18 b8 3d
       0.30897337 -0.067399584 0.30849355 0.08989111
000250 fb be d0 3e a6 e6 b5 be be e6 88 bd 54 55 69 bd
       0.40770707 -0.35527533 -0.066846356 -0.05696614
000260 8b 97 33 be a2 34 84 bc 19 3b b0 3e f6 59 a1 3d
       -0.17538278 -0.016138379 0.34420088 0.07878487
000270 18 da ac be cd fc 9b bd 9a b9 32 be 0f 13 94 3c
       -0.33760142 -0.07616577 -0.17453614 0.018075494
000280 8d 9d 9d bd 21 41 3e 3e 7d 6f 35 3e 1c 56 c6 bd
       -0.07696066 0.18579532 0.1771831 -0.09684393
000290 61 96 9f 3d 61 e9 35 be 9b 75 4f 3f a3 a7 03 bf
       0.077923544 -0.17764808 0.81038827 -0.5142767
0002a0 87 bf 75 bd 34 e5 ee be 06 d0 6e bd 54 5b 78 3c
       -0.059997108 -0.46659243 -0.058303855 0.015158493
0002b0 cd d9 33 be 0f 0f a0 bd 31 35 3b bc db 18 ff bd
       -0.17563553 -0.07815372 -0.011426256 -0.12455913
0002c0 9e a0 49 be a3 ef 05 3e 00 1f bc bc e0 74 2a 3d
       -0.19690177 0.13079695 -0.022964 0.041615367
0002d0 46 44 16 3e e6 c3 e5 be c8 85 d5 3d 46 27 d2 bc
       0.14674482 -0.4487602 0.104259074 -0.025653493
0002e0 92 d9 70 3f 86 eb 8d 3e 8e 45 bc 3d 84 09 ae bd
       0.94081986 0.27718753 0.09192954 -0.08497909
0002f0 f8 48 c7 bc c2 1f e0 3d 18 5f 82 be 32 d8 1f be
       -0.024326786 0.10943557 -0.25463176 -0.15609816
000300 e9 99 c9 3e 00 26 84 3e aa f9 99 bd 18 ba a2 be
       0.39375237 0.25810242 -0.07518323 -0.31782603
000310 fb 72 a7 bd f8 82 6f bd 6a 5b 61 bd c4 58 b6 3c
       -0.08176228 -0.05847451 -0.05501882 0.022259124
000320 f1 5d 45 3e c2 a4 2f be bb 22 46 bd cb 8e da be
       0.19274117 -0.17152694 -0.048372965 -0.42687067
000330 09 00 0a be 5f 00 e6 3e 9f c6 93 3c 57 ce 54 bd
       -0.13476576 0.44922158 0.018039046 -0.051954594
000340 b7 40 e7 3d 47 d9 32 3d 2b 38 8b 3e 65 63 6f 3e
       0.1129164 0.043664243 0.2719129 0.2337776
000350 27 72 53 be 0a 02 1c bb d6 02 d7 3d ab 04 0f 3d
       -0.20649014 -0.0023804926 0.10498588 0.03491656
000360 33 02 26 3e bd 61 a3 3e bc ab 35 3d 29 4c 48 3a
       0.16211776 0.31910506 0.04435323 0.0007640743
000370 0a 95 df 3d 73 28 01 bd 6f 93 87 3d 25 a3 78 3e
       0.10917099 -0.031532716 0.066199176 0.24280985
000380 45 db 85 3d 7a f7 ea bd 53 79 3f 3e 2c 71 82 3d
       0.06535963 -0.11472984 0.18698625 0.06369242
000390 62 40 cc bc a9 ea df 3d fe d6 61 bd 41 fd 74 3d
       -0.024933044 0.1093343 -0.055136673 0.059811834
0003a0 0a c2 3f bd 98 82 af 3c 13 6a 20 3d 86 92 88 be
       -0.04681591 0.021424577 0.03916366 -0.2667429
0003b0 67 c7 80 bd b7 e6 a6 3d dc 7d 08 3f dc 8d 1b 3e
       -0.06288033 0.08149474 0.53317046 0.15190834
0003c0 db 51 d7 bd 6c 94 4c 3e 73 37 22 ba 96 b5 ee bd
       -0.105136596 0.19978493 -0.0006188072 -0.116557285
0003d0 83 6a 9c bd ca 9a 9f bd cf b1 5e be 14 bd 32 3d
       -0.07637503 -0.077931955 -0.21747516 0.04363735
0003e0 5c d5 cb 3d 98 6b 8d 3d d3 71 17 be 31 ff cc bc
       0.099528044 0.069052875 -0.14789514 -0.025024028
0003f0 87 ed 3e 3d fd a5 0e bc c4 51 46 3e b8 6c 9d be
       0.046613242 -0.008706567 0.19367129 -0.30747008

lm3.bias f4 [12]
000000 5e b9 a0 3e 69 b5 73 3f b9 cd ca be 2d e1 ab bd
       0.31391424 0.95198685 -0.3961008 -0.08392558
000010 f4 67 92 3d 09 0c a2 3e b0 20 ca 3e a1 7c 06 3e
       0.07148734 0.31649807 0.39478064 0.1313348
000020 df e5 ae 3d 11 5f 7b bd d7 9c a2 be 31 c0 fe bc
       0.08539938 -0.06136996 -0.31760284 -0.031097503

lm4.weight f4 [12, 12, 3, 3]
000000 f2 ee 0d be 95 3d 21 be 4f 83 7a 3d 13 1e ca bd
       -0.13860682 -0.15746148 0.061160382 -0.098690175
000010 b1 43 ba 3d cf 53 cb bd a3 27 96 3d b3 75 ea 3d
       0.09094942 -0.099280946 0.07331779 0.114482306
000020 77 08 29 3d 48 c0 00 3b db 59 17 bd 1a 5c 6c bd
       0.04126784 0.0019645859 -0.036950927 -0.057705022
000030 e6 17 fe 3d b0 9e 6c be 67 d9 a9 be da bd 79 bd
       0.12406902 -0.2310741 -0.33173677 -0.060972072
000040 64 73 94 3e da b9 81 3c 67 86 24 bd e2 bf aa 3d
       0.28994286 0.015835691 -0.04016724 0.0833738
000050 0c c4 07 3a e4 80 50 be 3f 60 5b 3e a9 1c 3a 3e
       0.00051790546 -0.20361668 0.21423434 0.18174995
000060 9b f3 3a be d1 56 5c be 58 e6 cb bd a1 9c 29 3d
       -0.1825699 -0.21517493 -0.09956044 0.04140914
000070 da 22 f3 bd 3f f7 bf 3d ae 74 1f 3d e2 8a 29 be
       -0.11871882 0.0937333 0.038929634 -0.16556886
000080 9f 64 f7 3d 99 c7 41 bd 3a 81 8c be da 48 da bc
       0.12079739 -0.04730949 -0.27442342 -0.026646066
000090 cc 1f c1 39 2c 67 5e 3e d7 1d 4f 3e f5 2c d9 3d
       0.0003683552 0.21719044 0.20226227 0.10604278
0000a0 07 b7 61 3f 60 7c 25 be 22 c4 7f 3d 4e 7a 99 3d
       0.881699 -0.16160727 0.062442906 0.07494031
0000b0 4b 92 6d bd a3 c2 90 bd 97 1a 0f 3d 49 be 39 3e
       -0.058000844 -0.07068374 0.034937467 0.18138994
0000c0 4a 6e 51 be ca 94 e5 bb d9 94 fc bd 1c c0 a6 3d
       -0.20452228 -0.0070062624 -0.12333078 0.08142111
0000d0 da 05 20 3d bd ba 12 3d 79 65 3a 3b 96 cf e5 3e
       0.03906808 0.03582262 0.002844183 0.44884938
0000e0 a5 52 43 be 40 c4 a6 3e 74 23 ae be 97 6a 1f be
       -0.19074495 0.32571602 -0.34011424 -0.15568005
0000f0 5d c1 d3 bc 13 e9 fb 3d a7 9b 92 3c 23 e9 1a bd
       -0.025849039 0.12300315 0.017896486 -0.037819993
000100 04 54 98 bd 8c e9 4a bc 38 be a8 3c a6 db 5b 3e
       -0.074379 -0.0123847835 0.020598516 0.21470508
000110 08 12 67 be cd fd 85 be 22 5b 01 be a6 ff 7c 3c
       -0.22565472 -0.26170197 -0.1263242 0.015441811
000120 38 62 7b bd 00 e8 e8 bd f5 09 4f 3d 48 c1 07 3d
       -0.061372966 -0.113723755 0.050546605 0.03314331
000130 d8 c0 1e be 95 7d 86 3e 4f c5 8d bd d4 7d 79 3e
       -0.15503252 0.26267686 -0.06922399 0.24364406
000140 37 dd 28 3d 81 71 d8 bd 97 14 63 be f6 b6 39 3e
       0.041226592 -0.10568524 -0.22175823 0.181362
000150 12 a0 10 bd 53 b3 fe 3e 30 c8 16 be ad 44 59 3d
       -0.035308905 0.4974619 -0.14724803 0.05304401
000160 7c 81 bd bd 4a f4 e0 bc 0e 64 c3 3c be 96 42 3d
       -0.09253213 -0.027460236 0.02385142 0.04750704
000170 68 1b 05 3e 0b 36 14 3e 7d dd 0a bf 67 e1 d8 3e
       0.12998736 0.14473741 -0.54244214 0.42359468
000180 74 55 97 3c cc 41 11 3d 65 e7 1f be 0d ca 59 3d
       0.018473364 0.03546314 -0.15615614 0.053171206
000190 32 64 10 bd 4d cc f8 bd 68 49 87 bd 79 75 46 3f
       -0.035251804 -0.12148342 -0.06605798 0.77523
0001a0 58 03 66 be 31 c0 d1 3d 4a 85 d0 bd 82 9c 95 bb
       -0.22462213 0.10241736 -0.10181673 -0.0045657763
0001b0 91 19 ba bd 1a 36 b1 bb 23 64 09 3e 0e 42 b9 3d
       -0.09086908 -0.0054080607 0.13417105 0.09045802
0001c0 48 74 76 3e ee fa 9a be fa b9 59 bd b8 d9 4f be
       0.24067795 -0.3026957 -0.053155877 -0.20297897
0001d0 4f 72 28 3e da f1 fd bd 05 cf a2 3e bb d4 34 be
       0.16449855 -0.12399645 0.31798568 -0.17659275
0001e0 a3 ac 8a bd 7b 77 06 bf 8d 5d 9a be 50 71 72 3d
       -0.06771209 -0.5252606 -0.301495 0.059190094
0001f0 77 5b df be 92 28 65 bc 3c f5 0d 3d b3 a7 72 be
       -0.4362447 -0.0139867235 0.0346577 -0.23696785
000200 3a c6 c9 3a 1e 21 35 3e a9 0a fd bc 8a 73 aa 3e
       0.0015394159 0.17688414 -0.030888872 0.33291274
000210 5e 8c 9a bb e9 a4 3b 3e ec b2 1a 3d ce a4 45 bc
       -0.00471644 0.18324627 0.03776829 -0.012063218
000220 a2 7e 44 bd 21 ba 21 39 a5 cd 98 bd 89 14 5e 3c
       -0.04797233 0.00015423495 -0.074610986 0.013554701
000230 d4 a9 b3 3d ab 3f 3d bc 78 4a c7 3e fa ed 37 be
       0.087726265 -0.011550824 0.38924003 -0.17961875
000240 aa d5 1e be b5 03 a3 3e 73 79 57 be 72 9a f1 3d
       -0.15511194 0.31838766 -0.21042423 0.11797036
000250 a1 fa fd be cb 6c 03 be cf 6e bb bd 95 f6 37 bd
       -0.49605277 -0.1283447 -0.091519944 -0.044912893
000260 75 35 ff 3d ae 1b 00 bd bd 87 e2 3d 31 8b 2b 3a
       0.12461368 -0.031276397 0.11061046 0.00065438735
000270 94 d9 0d bd b2 22 06 3e ec 8f 44 3e 30 a0 06 3d
       -0.034631327 0.13099173 0.19195527 0.03286761
000280 51 e3 85 bc b8 d1 80 3c f9 ed 6d 3d 83 9a 8b 3d
       -0.016343744 0.015725002 0.058088277 0.0681658
000290 c9 4c 1c 3d 50 cd aa bd 91 ed 35 3d 82 2b a9 be
       0.038159166 -0.083399415 0.044416014 -0.33041006
0002a0 2a c0 ee bd 4d 2d 2e be de 1f 08 3c 77 b3 90 bd
       -0.11657746 -0.17009468 0.008308379 -0.0706548
0002b0 e7 6c e9 bc c9 c0 88 3b 58 da a6 bd 17 9a 48 3e
       -0.028494311 0.0041733724 -0.081471145 0.1959003
0002c0 c0 73 46 3e 3c 38 3e 3d 1a e4 4f be df 28 80 3d
       0.19380093 0.046440348 -0.20301858 0.062577955
0002d0 62 54 f8 3c da 00 42 bd 31 a6 87 3b 03 8b a8 bd
       0.030313674 -0.047364093 0.0041396846 -0.082296394
0002e0 57 cd 30 be e8 32 95 3e 73 ef 87 3d 44 8b 43 be
       -0.17265831 0.291404 0.06637468 -0.19096094
0002f0 da f4 c1 3e dc 41 7c be 5c 8e da 3e 18 3f 51 be
       0.3788212 -0.24634498 0.42686737 -0.20434225
000300 82 2a 86 3e 37 ec 21 be c1 9a 0d 3e a1 ee 72 3c
       0.26204306 -0.15812765 0.13828565 0.014827401
000310 9e f9 65 3c 5d 58 db bb 51 87 00 3e 95 92 91 bd
       0.014036564 -0.0066938833 0.12551619 -0.071080364
000320 e6 8c 94 3c bc 02 9e 3d 3f ed 92 be a1 cf fb 3e
       0.018133592 0.07715365 -0.2869663 0.49181846
000330 71 8b 33 3d dc d6 8a be 5a 91 f1 bc 5f 01 36 bd
       0.043834154 -0.2711705 -0.029488254 -0.0444349
000340 35 c6 2f be 20 47 40 3c 23 fd fa 3d 96 38 4b bf
       -0.17165454 0.0117357075 0.12255313 -0.7938322
000350 6d 23 31 3e 78 fc 69 3d 7f e5 cf bd b9 86 cd bc
       0.1729867 0.05712554 -0.10151195 -0.025088655
000360 ef 0e db 3d 34 78 1e 3e a4 9d 75 bd b1 c7 fd bc
       0.10696208 0.15475541 -0.05996479 -0.03097901
000370 0c 60 5e be 81 d9 95 3c 51 ff c0 bd 7f dd 8b be
       -0.21716326 0.01829219 -0.09423698 -0.27317426
000380 a0 56 6e bd ec 7b a6 3d 30 3e b8 3d 7b cc 44 3d
       -0.05818808 0.08129105 0.08996236 0.04804657
000390 6d ff e6 3d 42 89 05 3f 8b 4a cc be c5 cb e2 bd
       0.11279187 0.52162564 -0.39900622 -0.11074022
0003a0 90 d5 e8 be d9 5a 31 be 21 43 cb 3c 4f 22 b8 bc
       -0.45475435 -0.17319812 0.024812283 -0.022477297
0003b0 97 1d 6d 3c 55 97 9c bd 3b 10 69 bd 5e 9f e6 3d
       0.014472387 -0.07646052 -0.056900244 0.11260866
0003c0 68 42 e7 3e 25 77 11 3f 38 39 aa 3e 43 98 82 bd
       0.4516785 0.56822425 0.3324678 -0.06376698
0003d0 e8 9b c0 3a da e5 f4 3c 72 f8 65 bc af f9 06 3f
       0.0014694901 0.029894758 -0.014036285 0.52724737
0003e0 53 7f 87 3e 4f a4 77 3d 01 46 14 3f 96 4c 3f bd
       0.26464328 0.06045943 0.5791932 -0.046703897
0003f0 44 2b e2 3c 58 ea e1 bd 0b be 0a 3d f5 26 3d bd
       0.027608521 -0.11031026 0.033872645 -0.04617973

lm4.bias f4 [12]
000000 ce cc 06 3e d2 fc db 3e 01 f1 96 3e 41 eb 82 3e
       0.13164064 0.42966324 0.29480746 0.2557011
000010 ff 40 b5 3e 90 49 df be 94 a5 c9 bd 99 fa 17 3e
       0.3540115 -0.4361081 -0.09846035 0.14841689
000020 89 59 9b 3e e9 97 95 3e d6 97 1e 3e 08 bd 0a 3f
       0.30341747 0.2921746 0.15487608 0.5419469
